checkpoint_critic.pth (torch_old, 83863 bytes, 9 tensors)

fcs1.weight f4 [128, 24]
000000 c2 7d b7 bd b9 26 91 3e 5c 2b 70 3c 24 6f ae 3d
       -0.08959533 0.28349856 0.014658775 0.08517292
000010 92 8b 50 3f db d7 1d 3e 92 3c 34 3d 96 9a 01 3e
       0.8146297 0.15414374 0.044003077 0.12656626
000020 a6 04 f5 bd 30 eb 8e 3e 24 05 b2 3d b7 fb 19 be
       -0.11963777 0.2791381 0.08692387 -0.15037428
000030 cc 9f 82 3f 1b bf b5 3d d0 94 63 bd 2c 64 36 be
       1.0205016 0.08874341 -0.05556184 -0.1781165
000040 86 ac 11 be d2 ec a1 3e 2e 5c 68 3d f2 fc 44 be
       -0.14225969 0.31625992 0.056728534 -0.19237116
000050 17 ab b5 3f 3d 32 ac 3c 34 af 7c bc 6e 97 63 be
       1.4192837 0.02102005 -0.015422631 -0.22225735
000060 8d a7 3f be 0c 0d 41 be fd 0e e2 3d c5 06 83 bd
       -0.1871626 -0.18852633 0.11038015 -0.063977756
000070 e7 88 43 bc 81 b2 25 be dd ae a1 bc 4a 0e 83 3d
       -0.0119344955 -0.16181375 -0.019736702 0.0639921
000080 6e dc 2c be 87 96 f2 3d 97 07 83 bd 4a 71 9e 3d
       -0.16880962 0.11845117 -0.06397932 0.07736452
000090 01 ce cc 3d bd 2f cf be 84 32 89 bc d1 1d a4 b9
       0.100002296 -0.4046611 -0.01674772 -0.00031302733
0000a0 94 1f b4 bd a5 a3 6a bd 3b 09 b2 bd 0c 6f 42 bf
       -0.087950855 -0.05728497 -0.08693167 -0.75950694
0000b0 bb 87 bb 3e 5f 03 04 bf ac 7f f0 3a 7b 2f 40 bf
       0.36626992 -0.51567644 0.0018348596 -0.7507245
0000c0 5c d3 91 be 89 aa 99 3f 4d e3 88 bb fa 9a 1a be
       -0.28481567 1.2005168 -0.004177487 -0.15098181
0000d0 00 54 58 bf 51 83 01 bf 2c 31 26 3b 09 c7 8b bd
       -0.84503174 -0.50591 0.0025358899 -0.06825072
0000e0 96 bb 8a 3d 81 6b 6b 3f d6 02 8d bc 9f ab 7c be
       0.067740604 0.9196091 -0.017213266 -0.24674843
0000f0 4a f8 f2 be 38 3b ed be fc 48 c9 3b a2 70 c1 be
       -0.47455055 -0.46334243 0.0061427336 -0.37781245
000100 f2 39 e4 3c 60 d3 ed 3e ff cd 86 bc 9f 4a c8 bd
       0.027859662 0.4645033 -0.016455648 -0.09779858
000110 99 32 19 be d7 2e da be c5 5a 50 3d bc b3 c6 bd
       -0.14960708 -0.4261386 0.050867815 -0.0970225
000120 3b cf e7 bc 18 83 1c 3c 40 4c 64 3d 78 af 2e 3d
       -0.028297057 0.00955274 0.05573678 0.04264781
000130 d4 09 1a c0 44 c0 3b 3e 8f 2f 2b bd d1 b6 30 3c
       -2.4068499 0.18335062 -0.041793402 0.010785774
000140 c1 9c 04 be 75 04 69 3e 7e 88 32 3d bd f0 79 bd
       -0.12950422 0.22755606 0.0435872 -0.0610206
000150 d2 1f b5 bf 98 5b 9d 3d b9 02 47 bc 24 f2 28 bd
       -1.4150336 0.07683486 -0.012146645 -0.04124655
000160 59 68 1f 3c 9d 8b b8 bd a8 05 58 bd 6c 25 3c 3d
       0.009729468 -0.09011004 -0.05273977 0.045934126
000170 30 9e 5f bf 78 73 4e 3e 86 fb 01 3d cc 7c 2b bd
       -0.8735075 0.20161235 0.031734012 -0.041867062
000180 81 cc 94 3f 8e 2e b1 be 11 1e 42 bc 05 55 31 be
       1.162491 -0.3460583 -0.011847989 -0.17317589
000190 3f d7 e0 3e f2 4d 88 3e 4a 1b 2a bc 66 2f 73 be
       0.4391422 0.26621968 -0.010382483 -0.2374855
0001a0 08 58 36 3f 11 09 04 be 42 c0 72 3d 1e 44 84 3e
       0.71228075 -0.12894084 0.059265383 0.2583322
0001b0 f1 6b bb 3e 9b 48 2c 3e 07 0e 07 3e a6 8a d3 3e
       0.3660579 0.16824572 0.13188945 0.41316718
0001c0 14 b1 d5 3e bf 5d 65 3d fe ad 41 3b 9d aa 58 3e
       0.41736662 0.055997606 0.002955317 0.21158834
0001d0 03 2f 96 3d 88 54 22 3e d8 ea 1d bd 2f 50 08 3e
       0.073331855 0.15852559 -0.038554043 0.13311838
0001e0 d3 5c 1c be 48 15 13 bf cf 1e d0 3d 8f 5b 80 3e
       -0.15269785 -0.5745435 0.10162126 0.25069854
0001f0 72 20 3f 3f 17 02 62 3c ff 2b 6d bd 81 6c c1 3e
       0.7465888 0.013794444 -0.057903286 0.37778094
000200 56 49 5a be dd ec 79 be 20 92 e4 bc 29 15 64 bd
       -0.21317038 -0.24406762 -0.02790171 -0.055684242
000210 29 27 1c 3e db 0a 8a be 11 0f 0a 3d e0 cf 87 3d
       0.15249313 -0.26961407 0.033705775 0.06631446
000220 39 77 1b be 7d 8d 81 3e a2 5a c3 bb cc c6 d3 be
       -0.15182199 0.2530326 -0.005961732 -0.41362607
000230 df 08 84 be b9 4b 8c be 5d 4b e4 3c 5e 6c 02 bf
       -0.25788018 -0.27401522 0.027867967 -0.50946605
000240 57 78 55 3e ee e6 09 bf 0f 1d 91 be 22 bc 89 be
       0.20846687 -0.53867996 -0.28342482 -0.26901346
000250 f8 fa 99 3e df e5 f1 bd 3c 9d 98 be 3f 03 f9 bd
       0.30074286 -0.118114226 -0.2980746 -0.12158822
000260 c7 e9 8b 3e da e0 27 bf 1e 50 f2 3c ce 49 88 be
       0.27326795 -0.6557747 0.029579218 -0.26618809
000270 e1 1d 6a 3e 74 bd 8f bc 5e 18 f6 3d 7e 55 bc be
       0.2286296 -0.017546393 0.120163664 -0.36783975
000280 71 7a d2 3e 2d 02 10 bf ad ea ce b9 79 dc b0 3e
       0.4110904 -0.5625332 -0.0003946623 0.34543207
000290 aa 29 14 3e 3b dc d0 bd 97 53 54 bc 20 60 c3 3e
       0.14469019 -0.10198256 -0.0129593825 0.38159275
0002a0 e3 e6 23 3e 84 73 47 3d 76 f3 8f 3d 08 fc 7d be
       0.16006045 0.04869415 0.07028858 -0.24803174
0002b0 12 a2 b3 bc 8e 49 9e be 2a 74 84 3d e7 7b 3d be
       -0.021927867 -0.30915493 0.06467469 -0.18504296
0002c0 bf 86 86 3e 78 54 ad 3d b6 e6 b9 3c df 7f 12 3d
       0.26274678 0.08463377 0.02269302 0.03576648
0002d0 5b c3 db 3a 10 78 03 bf 3f 8f 9d 3c 9d 4b da 3d
       0.0016766594 -0.51355076 0.019233344 0.10658953
0002e0 f9 cb 25 3d 87 fb 06 3e 84 85 c8 bd 36 da dc be
       0.040477727 0.13181888 -0.09791091 -0.43135232
0002f0 ca f3 29 3e 64 1d 88 bf 26 b2 3f be 47 d6 e8 be
       0.16596904 -1.0633969 -0.18720302 -0.4547598
000300 97 4c 7d 3e c3 5a 50 3f 46 f9 7c bc 4a 86 9d 3d
       0.24736248 0.8138849 -0.015440291 0.07691629
000310 35 19 41 3f 57 30 dd be 2e dd 88 3c 81 2c 65 bd
       0.7542909 -0.43200943 0.01670703 -0.055950645
000320 dc d8 05 bc 9e f9 b8 bd 9d 88 6c bc 9b 8b bf 3c
       -0.008169379 -0.09031986 -0.014436868 0.023381999
000330 e6 af fa 3d 02 d8 80 3c a6 c5 d1 3c 7f a7 21 bd
       0.12240581 0.015728 0.025606941 -0.039466377
000340 4a 9d 48 be 42 e0 9f be 46 af 0c bd 9f c2 c0 bb
       -0.19591251 -0.31225783 -0.03434684 -0.0058825756
000350 47 d0 ca bd e5 13 bc 3e de 42 74 3d 13 6b d3 bc
       -0.09903007 0.36733928 0.059634082 -0.025807893
000360 82 64 e5 3e d0 a5 eb 3e c0 40 c7 bc 63 80 5d 3e
       0.44803244 0.46024942 -0.024322867 0.21631007
000370 52 34 22 3f 1c ff e5 bd fc 30 ca bc a0 3b d7 3d
       0.63361084 -0.11230299 -0.02468156 0.105094194
000380 49 f1 00 3f 63 40 22 3e 11 8d cb 3c 87 41 9f bc
       0.5036817 0.15844874 0.02484754 -0.019440426
000390 31 43 28 3f 04 05 3b bd b6 78 36 3d 02 05 86 bd
       0.65727526 -0.04565908 0.044548713 -0.06543924
0003a0 9f 25 38 3f 0b 4d 6b 3e 00 9b d5 3d fe 5b df be
       0.71932405 0.22978608 0.104299545 -0.43624872
0003b0 50 7c 73 3f e2 ed a7 be c0 b4 13 3e 49 f2 f3 be
       0.9511156 -0.32798678 0.1442442 -0.47645786
0003c0 3b fe c7 bd 40 0b fc be 39 9b 37 be 2e 42 81 3e
       -0.097652875 -0.49227333 -0.17930306 0.25245804
0003d0 9d c2 e5 3e a8 ce 1f bf 96 4c d9 bd 3b ad 7e 3e
       0.4487504 -0.6242471 -0.10610311 0.2487077
0003e0 fb ac 41 bd bb 70 07 bf 92 26 2c 3d 6a f0 54 3e
       -0.047284108 -0.5290639 0.04202897 0.20794836
0003f0 04 47 b0 3e 76 19 d6 be 94 26 56 3d b3 26 ed 3d
       0.3442918 -0.418163 0.052282885 0.11579647

fcs1.bias f4 [128]
000000 36 d2 27 3e de 0a 9b 3c 11 5c bc 3c 13 51 fd bd
       0.16388783 0.01892608 0.02299312 -0.12368979
000010 1f 4b d9 bd c0 db 91 3e f6 b6 46 be 2f 2a 4f be
       -0.10610031 0.28487968 -0.19405732 -0.20230936
000020 0d c2 25 3e b6 13 0f be de 38 b3 be 06 f5 7c bd
       0.16187306 -0.13972363 -0.35004324 -0.06175711
000030 81 c5 76 bd 68 22 be 3e 08 22 81 3e fc 4c 08 3e
       -0.06024695 0.37135625 0.25221276 0.13310617
000040 e5 73 57 3e 23 db ad bd ed db 61 be bf 0d 23 be
       0.21040304 -0.08489063 -0.22056551 -0.15923212
000050 2f d5 d3 bc de 2e f1 be dd f5 6b 3d ba 8a 58 3e
       -0.02585849 -0.4710607 0.05760752 0.2114667
000060 2b dd 7b be 7f 4c 96 be 0e 7f 20 3d 69 65 b0 be
       -0.24596088 -0.29355237 0.03918367 -0.3445237
000070 47 0b db bd ca 62 a4 be 8c 24 a9 bd 18 75 a4 b9
       -0.1069551 -0.3210662 -0.08258924 -0.0003136776
000080 9e 30 de 3d 08 5d 56 be 18 81 07 be bc 97 27 be
       0.10849117 -0.20933926 -0.13232839 -0.16366476
000090 56 1e 7c 3e a9 8b f4 be d8 79 b1 3e 84 69 15 3e
       0.24620947 -0.47762802 0.34663272 0.14591032
0000a0 fc bd 57 be 98 13 57 3e 84 9e 54 be 78 a3 18 3d
       -0.21068567 0.21003568 -0.20763594 0.03726527
0000b0 a6 f7 bc be 9a f6 e4 bd 4f 22 12 be ac e6 cb be
       -0.3690769 -0.11179848 -0.142709 -0.39824426
0000c0 89 44 b0 be 25 27 49 be 99 5b 6f be a7 67 47 be
       -0.34427288 -0.19643839 -0.23374785 -0.19473134
0000d0 93 ea 90 be 1b 82 23 be bc 4c d1 3d f4 76 59 be
       -0.28303966 -0.159676 0.10219714 -0.21236783
0000e0 fe 3a e8 be 12 cf 5f 3d d8 4b 39 bd bb a6 92 be
       -0.45357507 0.054640837 -0.045238346 -0.2864283
0000f0 98 cf ad be f4 fe d9 be 6d de 7d 3e d8 2f f4 be
       -0.33947444 -0.42577326 0.2479188 -0.47692752
000100 fb fe 29 bf 73 0c 9d be 16 1f af bd e4 4f e8 be
       -0.66404694 -0.3067356 -0.08550851 -0.45373452
000110 bf f6 31 3c 27 74 8b 3c 51 87 46 be 0a 93 2a 3e
       0.0108620515 0.01702316 -0.19387557 0.16657653
000120 fc 72 b5 3e 8e 53 02 bf 07 a4 36 bd 25 bc 26 3e
       0.3543929 -0.50908744 -0.044590022 0.16282709
000130 9b 26 25 3e a1 57 63 be e0 49 86 ba 70 bc 02 be
       0.16128008 -0.22201397 -0.0010245405 -0.12767196
000140 46 b3 b1 3d fb dc 81 be 33 7e ab 3d ff eb d6 bd
       0.08676772 -0.25363907 0.0837368 -0.104942314
000150 26 a3 20 be 64 a8 80 3d 7a 5d 10 3d d9 56 94 bd
       -0.15687236 0.06282118 0.035245396 -0.072431274
000160 ad 57 29 bd 45 a3 81 be 63 4d 4b be b1 58 cf 3d
       -0.04134338 -0.25319877 -0.1985374 0.101243384
000170 c0 c6 1d bf 21 7e f3 be bc 86 1e bd 4b bc 9c 3d
       -0.61631393 -0.47557166 -0.03870271 0.076531015
000180 05 d5 18 bd c9 d0 e1 3e d2 99 a2 be 15 09 92 be
       -0.037312526 0.44104603 -0.3175798 -0.28522554
000190 ce 8b 22 be 01 d7 bf bd ae 7f a3 3d a4 c9 22 be
       -0.15873644 -0.093671806 0.07983337 -0.15897232
0001a0 25 6a b7 3d f4 64 65 3e f1 44 11 be bd 44 09 be
       0.08955792 0.22401792 -0.14186455 -0.13405128
0001b0 c1 19 64 3e 09 70 51 3e 8c 4e 27 bd ab 29 74 3e
       0.2227545 0.20452894 -0.040846393 0.2384402
0001c0 3c 21 42 3e 90 89 57 3e a4 d9 b2 3d 37 59 86 be
       0.1895799 0.2104857 0.08732918 -0.2623994
0001d0 be 26 4a be 84 8f 9e be 02 88 ea 3c 70 d5 29 3e
       -0.19741341 -0.3096887 0.028629307 0.16585326
0001e0 05 16 93 3d 64 47 80 be cd ce 84 be ab 70 69 be
       0.07181934 -0.25054467 -0.25939026 -0.22796886
0001f0 5c 07 bc bd fa e9 f8 be 05 9c 1a 3e 37 c2 23 3b
       -0.09181091 -0.4861601 0.15098579 0.0024987587

bn.weight f4 [128]
000000 e8 f6 18 3f 1c e6 e8 3d c4 bb b6 3e 99 56 70 3f
       0.5975175 0.11372015 0.3569013 0.9388214
000010 96 35 e8 3d a7 f3 83 3e c1 1f ec 3c 79 84 a4 3e
       0.11338346 0.2577183 0.028823735 0.3213232
000020 bc 29 a7 3e f3 99 05 3f 44 2c a2 3d 2a 6a aa bd
       0.32649028 0.5218803 0.07918599 -0.083210304
000030 7f 0f 4b 3e 07 d6 c0 3e ca 33 99 3e 34 b1 41 3f
       0.1983013 0.3766329 0.29922324 0.75661016
000040 ae 2d b4 3e 12 98 78 3d 11 b2 ae 3e 24 aa a8 ba
       0.351911 0.0606919 0.3412023 -0.0012868089
000050 72 05 17 3f 50 68 51 3e 3c dc b0 3d 1f 49 17 3d
       0.58992684 0.20449948 0.086357564 0.036934968
000060 4c 2d 9b 3a 42 94 c4 bc 1d 6b ca 3e 55 2d 39 3f
       0.0011839061 -0.023996476 0.39534846 0.72334796
000070 25 c5 58 3e 92 55 2c be f0 37 24 3e 8d 07 ae 3e
       0.21168955 -0.16829517 0.16036963 0.33990136
000080 e9 f8 09 3e 10 0d 81 3e f8 cf 7b 3e 5d 70 b5 3d
       0.13473858 0.25205278 0.24591053 0.08859322
000090 e6 3a 0d 3e 27 3b 06 3f 68 f6 8a 3d 7f 4d 16 3f
       0.13791999 0.5243401 0.067852795 0.58712
0000a0 6c c0 50 3e c3 03 d5 3d 40 a3 aa 3e c7 46 9a 3e
       0.20385903 0.10401108 0.33327675 0.30132124
0000b0 78 bf 97 3d 9a 00 3e 3e 2c 99 7b 3d 8c b1 32 3d
       0.07409567 0.18554917 0.061425373 0.043626353
0000c0 f3 22 b3 3e 3a dd ac 3e 2a c8 a5 3d 9f fd 26 3e
       0.34987602 0.33762532 0.08094819 0.16307686
0000d0 bc 97 23 bd f4 c2 ca bd f1 01 5c 3d 7d 56 bf 3d
       -0.039939627 -0.099004656 0.05371279 0.09342668
0000e0 17 89 2e 3f 74 04 e6 3d 3f 32 ad 3f 79 30 7f 3e
       0.6817793 0.11231318 1.3530959 0.24920835
0000f0 15 76 b0 bd da d5 84 3e 6b a7 84 3e 6d 9b 31 3e
       -0.08616272 0.25944406 0.2590898 0.17344446
000100 ee ed 87 3d b4 70 aa 3e c6 be 05 3f b0 20 2c 3e
       0.06637178 0.3328911 0.5224422 0.16809344
000110 ec d3 a2 3e 83 06 bb 3e 0a 9b 01 3e 50 b5 6a 3d
       0.3180231 0.36528406 0.12656799 0.05730182
000120 c3 e3 b0 3e f7 32 f0 3d db 41 b6 3e 69 3a 4a 3e
       0.34548768 0.11728471 0.3559712 0.19748844
000130 a7 eb c7 3d 5f a5 91 3e f8 e3 80 3d 19 01 20 3e
       0.09761744 0.2844648 0.062934816 0.15625419
000140 62 73 c7 ba f5 91 b7 3d fa f2 a4 3d 35 e0 4a 3f
       -0.0015216882 0.08963386 0.080541566 0.7924836
000150 02 84 63 3e 10 17 17 3e b5 92 23 bb 51 77 ad 3d
       0.22218326 0.14754891 -0.002495927 0.084700234
000160 da 26 0a 3e fc e2 20 3f 1e 67 21 3d 07 ff 5b 3f
       0.13491383 0.6284635 0.03940498 0.85936016
000170 c7 fe 85 3d bc 8e 37 3e 60 09 1f 3e f1 eb a4 3d
       0.065427355 0.17925543 0.1553092 0.08052815
000180 a7 3a 16 3c d8 22 49 3e da 73 02 3e 20 75 7e 3e
       0.009169257 0.19642198 0.12739506 0.24849367
000190 1b 21 06 3f 4a d6 03 3f 7a 72 e9 3e 3d ba e3 3d
       0.52394265 0.51498854 0.4559515 0.111195065
0001a0 46 1c 98 3e b9 07 82 3e 99 30 2f 3d f0 ac 22 3e
       0.2970907 0.25396517 0.042770956 0.15886283
0001b0 d5 f5 31 3f 77 af dc 3e af 60 98 3d 2a dd 83 3e
       0.69515735 0.4310262 0.07440316 0.25754672
0001c0 d1 1d be 3e 52 ce 04 3f 2d fd 37 3e 08 3d bc 3d
       0.37132123 0.5187732 0.17967673 0.09191328
0001d0 20 4a 0b 3f f3 16 b7 3c e4 39 3e 3d 2b 46 84 3e
       0.5440998 0.02234981 0.046441928 0.25834784
0001e0 cf f5 fd 3d 34 34 96 3d f5 e2 b6 3c 2b 2c 0d 3c
       0.124004 0.07334176 0.022325018 0.0086164875
0001f0 97 f2 6d 3e cb 98 4d 3e 76 84 0c 3e b0 2c 12 3e
       0.23237072 0.20077817 0.13722405 0.1427486

bn.bias f4 [128]
000000 b9 34 d3 3e 3f 34 56 3d ab 2a ea 3d 90 37 45 3c
       0.41251162 0.05229592 0.114339195 0.012037173
000010 f1 84 ed ba 01 db 38 3e 6e 8c 66 3c d4 e1 ad 3d
       -0.0018121285 0.18052293 0.014071567 0.08490339
000020 d3 26 5d 3e 12 85 5c 3e 00 be 2f 3d 73 6f ce 3d
       0.21596842 0.21535137 0.042905807 0.10079851
000030 b2 55 09 be 8e ca 80 be 15 c1 64 3e 58 79 4d 3e
       -0.13411596 -0.25154537 0.2233928 0.2006582
000040 cc 0a a5 3d 1f 7c 90 bd 78 88 d2 3d e7 a4 7b ba
       0.080587 -0.07054924 0.102799356 -0.00095994625
000050 07 7f 03 3e af 1b c8 3a 39 ec a8 3c ae 0e b8 bc
       0.12841426 0.0015267039 0.020620452 -0.022467937
000060 2f c0 0d 3a c8 44 3a ba 17 96 6e 3e 60 a9 5b 3e
       0.0005407361 -0.0007105586 0.23299442 0.2145133
000070 f0 bc d3 bd 2f d2 88 bd 91 0a a0 3d f3 3c 78 3e
       -0.10338771 -0.06680714 0.078145154 0.24242
000080 68 64 7d 3c 37 e4 e8 3d bc 7e 1b bd cf 5b 25 3c
       0.015465833 0.113716535 -0.03796266 0.01009269
000090 79 80 8b 3d 07 28 9d 3e 4a c8 49 bb 20 d9 a9 3e
       0.068116136 0.306946 -0.0030789548 0.33173466
0000a0 5a 76 38 bb 82 cd 5c 3d b3 89 29 3e d3 50 6f 3e
       -0.0028146715 0.053906925 0.16556434 0.23370676
0000b0 66 ad 1f 3d 35 c4 18 be be ed f3 3b 0a 17 ed ba
       0.038983725 -0.14918597 0.0074441126 -0.0018088531
0000c0 b7 e1 30 3e 75 22 ef 3d 29 13 67 3d b0 1c 18 be
       0.17273603 0.11676494 0.056414757 -0.14854693
0000d0 73 2d 03 bc 8b 33 3b bc 63 b2 1b 3c e4 da 8d 3c
       -0.008006441 -0.011425863 0.00950298 0.01731629
0000e0 90 d1 a9 bd 0e 4d 6e 3d 11 dd 8e 3e d1 3c 42 3e
       -0.08291924 0.058178954 0.27903035 0.18968512
0000f0 e3 6a b6 3b d4 1b 22 3e 8a f1 34 3e e5 5c bb bd
       0.005566941 0.15830928 0.17670265 -0.091485776
000100 e6 92 8f 3b 71 72 24 3e 14 d2 d6 3e 35 71 6f 3d
       0.0043815253 0.16059281 0.41957152 0.058457572
000110 c3 c3 b7 3d f1 11 18 3e a9 e5 0e 3d e1 bc cf 3b
       0.089728855 0.14850594 0.03488699 0.006339655
000120 22 eb 76 3e 8e e9 53 3d 15 ba 03 be dd 25 48 3d
       0.24113134 0.051736407 -0.12863953 0.048864234
000130 98 f2 8b 3c 8b 88 8f 3d 51 e6 89 bd dd dd 5f 3d
       0.017083451 0.070084654 -0.067333825 0.054654945
000140 fb ce 91 39 80 85 c3 3c b2 43 46 bd 29 a7 97 3e
       0.00027810768 0.023867369 -0.048404403 0.2961972
000150 00 4e 6d 3d 1b 4f a7 3d d9 23 91 ba 96 e6 16 3d
       0.057935715 0.08169385 -0.0011073306 0.036840998
000160 38 0a 0b 3d 66 75 f8 ba d5 ec 08 be 20 ab d7 3e
       0.033945292 -0.0018955886 -0.13371594 0.42122746
000170 54 41 59 3c ec 9d 01 3e 5d 1e b6 3c c4 79 64 3d
       0.013260204 0.12657899 0.022231275 0.055780187
000180 96 a2 22 ba 8f 23 27 3e 1b 92 5b 3d 14 a6 df 3d
       -0.0006204037 0.16322158 0.053606134 0.10920349
000190 ab fb c1 3e 2b 6a 6a 3e 8a 78 b1 3e df ac fc 3c
       0.3788732 0.22892062 0.34662277 0.03084415
0001a0 b2 e3 75 3e e6 d9 44 3e 9a 32 32 3b 34 36 33 3d
       0.2401264 0.19223747 0.0027190805 0.043752864
0001b0 4b fa 27 3e c5 9b 12 3e 4f 9f 18 3c 9f 2d 25 3e
       0.16404073 0.14317234 0.009315326 0.16130684
0001c0 0f a4 ed 3d 68 89 8d be a2 7b 2f 3d 22 0d 6d 3d
       0.11603557 -0.27643895 0.042842515 0.057873853
0001d0 a7 77 3d 3e fd 3a 2f b9 62 ca 31 3e f2 e4 bd 3d
       0.18502675 -0.00016711275 0.17362359 0.092721835
0001e0 e8 ba 57 3d 49 55 86 3b a4 ce 34 3b 1c 7d 96 3a
       0.052668482 0.0040995223 0.0027588988 0.0011481377
0001f0 dd 11 10 3e 14 02 3e 3d 22 18 f3 3d 4e a8 94 bd
       0.14069314 0.0463887 0.11869837 -0.07258664

bn.running_mean f4 [128]
000000 e9 dc 28 41 42 ef 08 40 b0 c4 24 40 61 ed 55 41
       10.553933 2.1396031 2.5745049 13.370454
000010 ca 39 c8 3f ed f5 62 40 0f f8 a3 3f 61 a9 b0 3e
       1.5642636 3.54626 1.2810076 0.34504226
000020 a5 dd 00 40 bb 2a 3c 40 18 99 14 40 19 90 39 41
       2.013528 2.940108 2.321844 11.59768
000030 fb b8 a7 40 c6 e5 13 41 aa b4 88 40 1d 8f 6b 41
       5.2413306 9.243597 4.2720537 14.72244
000040 e1 75 64 3e 31 01 7d 3f bb 08 0d 3f 31 b1 7a 40
       0.22310592 0.9882994 0.55091447 3.917065
000050 d3 b6 79 3e b1 2a cd 40 1d 5d 1c 40 6b d4 b5 3e
       0.24386148 6.4114614 2.4431832 0.35513625
000060 1d bc e6 3f 92 27 d1 3e 7f e4 1d 40 f9 d2 1a 41
       1.8026158 0.40850502 2.4670713 9.676507
000070 1b bc 0b 41 7a ad de 3f af 6e cc 3f 8d e8 a6 40
       8.733424 1.7396691 1.5971278 5.2158875
000080 3f 1e 39 3d 7d 0f 44 40 63 6b be 3f 91 fc 49 3d
       0.04519486 3.0634453 1.4876522 0.04931313
000090 aa 69 c5 40 f5 a8 14 40 be df 9e 3f 53 f8 68 41
       6.1691484 2.3228123 1.2412031 14.560626
0000a0 f2 13 14 40 18 de 21 40 ee 91 c6 3f 86 64 4e 41
       2.3137174 2.5291805 1.5513284 12.899542
0000b0 4a d2 81 40 6c d6 b3 40 d0 a2 ba 3f 81 4b e3 3e
       4.05692 5.6199245 1.4580936 0.44393542
0000c0 d0 29 0d 40 8b d8 51 3f d2 cf 72 40 45 33 8d 40
       2.205677 0.81971043 3.7939343 4.4125085
0000d0 0e a5 e8 3e 1f e3 ed 3c 8a 68 18 3f 13 df f0 3d
       0.45438427 0.029038964 0.59534514 0.11761298
0000e0 55 48 0d 41 24 b7 90 40 6b 3f 71 41 fd ed 8b 40
       8.830159 4.522356 15.077983 4.3728013
0000f0 03 0d 60 3f 85 f2 56 40 51 a9 81 40 46 21 ba 40
       0.87519854 3.3585522 4.0519185 5.8165617
000100 35 18 4b 3f d8 b4 97 3f 94 20 3b 41 10 3a 2a 3f
       0.7933381 1.1852064 11.695454 0.66494846
000110 da a0 f6 3e db ee 13 40 a9 16 f2 3e 2a e9 95 40
       0.48169595 2.3114536 0.47282913 4.6847124
000120 df fb d4 3f b7 6e b3 3f 93 71 f5 40 90 b7 13 3f
       1.6639365 1.4018162 7.670114 0.5770197
000130 23 b5 8c 3e 62 bc ed 3e 5f a4 cf 40 12 c1 57 3f
       0.27481946 0.46432787 6.488815 0.84278977
000140 f3 3a 09 40 a5 63 9b 40 b2 9d 7f 3f 6a ca 7d 40
       2.144223 4.8559136 0.9985 3.9654794
000150 87 d6 be 3e ab 65 2a 40 a1 1d e8 40 bc 66 05 40
       0.37273046 2.6624553 7.253617 2.0843954
000160 5c 16 7a 3f 60 a8 33 41 3d ed 03 3d c9 25 46 41
       0.9769037 11.228607 0.03220867 12.384225
000170 72 1e 95 3f 0b aa a9 40 83 1a f7 40 97 5b 0e 40
       1.1649916 5.302007 7.7219863 2.2243402
000180 ce 25 2a 40 cd 09 10 41 db 02 8e 3f 21 3c 96 3f
       2.6585574 9.002393 1.1094621 1.17371
000190 be f9 a3 40 68 2f ae 3f 10 f9 2a 41 f0 b1 3d 40
       5.124236 1.3608217 10.685806 2.9639854
0001a0 1a 7e 17 41 c3 26 80 40 29 49 b3 3e a8 74 d5 3e
       9.4682865 4.0047317 0.35016754 0.41690564
0001b0 5e 68 44 3e f7 68 26 3f 47 45 58 3e fd 8d c0 40
       0.19180438 0.65003914 0.21120177 6.0173326
0001c0 16 2d c2 3e 4f 77 2d 41 f0 5c 4e 3e e6 6e 66 40
       0.37925023 10.841628 0.2015264 3.6005187
0001d0 e3 95 58 3f 78 c5 f9 36 20 e7 a9 40 d2 e0 12 3f
       0.8460371 7.4437667e-06 5.3094635 0.573743
0001e0 e2 2a 03 40 68 25 0a 40 ed b1 0b 40 4c 49 67 3f
       2.0494924 2.158533 2.1827347 0.9034622
0001f0 5d ce 72 40 91 80 08 3f a3 6a 1e 40 7a b6 da 40
       3.7938454 0.53321177 2.4752586 6.834775

bn.running_var f4 [128]
000000 e6 d8 14 43 2f 29 5d 41 42 8b db 41 2e a7 78 43
       148.84726 13.822555 27.442997 248.65305
000010 64 70 4b 41 0e 65 58 41 b1 09 6d 41 04 06 52 40
       12.714939 13.524672 14.814866 3.2816172
000020 66 4f b8 40 18 fa 3a 42 bb b0 cc 41 51 5a 10 43
       5.759692 46.744232 25.586294 144.3528
000030 02 19 19 42 e9 aa a6 42 6d a8 f1 41 b7 df aa 43
       38.27442 83.33381 30.20724 341.74777
000040 f6 90 6f 3f 96 e6 21 41 fb 35 5b 40 28 89 05 42
       0.9358057 10.118795 3.4251697 33.38394
000050 32 5d cf 3f e5 ae 53 41 3e d7 27 41 28 e8 0b 40
       1.6200316 13.230199 10.490049 2.1860447
000060 85 67 a4 41 8a df 1a 40 45 1f 87 41 50 fc 19 43
       20.550547 2.4198937 16.890268 153.9856
000070 08 4e b5 42 d8 bc 3d 41 b6 90 b5 40 47 ab 5a 42
       90.652405 11.858604 5.673915 54.667263
000080 52 9c 59 3e 79 92 0f 42 ba 01 53 41 95 6f 2b 3e
       0.21251038 35.89304 13.187922 0.16741784
000090 9e b5 c3 41 b0 d3 b6 41 e8 f4 5b 41 8c d3 92 43
       24.46368 22.853363 13.747292 293.6527
0000a0 f8 7c db 41 b9 ef 1c 41 03 1b 22 41 e4 dc 65 43
       27.43602 9.808526 10.131595 229.86285
0000b0 a7 ee fc 41 75 c4 88 42 9d a7 ea 40 57 36 1d 40
       31.61653 68.383705 7.3329606 2.4564416
0000c0 c0 a4 a2 41 55 4e b2 40 ed 85 fb 41 88 a6 0b 42
       20.330444 5.572062 31.440393 34.91263
0000d0 48 84 6c 40 79 17 de 3d 6e b9 42 40 94 b3 0c 3f
       3.6955738 0.10844321 3.0425677 0.54961514
0000e0 e6 71 d4 41 6a df 35 42 49 59 a1 43 1a b1 a8 41
       26.555614 45.468178 322.69754 21.086475
0000f0 8f f7 68 40 67 ca 28 41 37 31 05 42 4a 15 a2 42
       3.6401098 10.549415 33.29806 81.04158
000100 dd 36 a9 40 2e b4 e2 40 36 d4 35 43 38 83 c8 40
       5.287947 7.0844946 181.82895 6.266018
000110 3e 6d 3f 40 c7 53 0a 41 66 9e ca 3f 63 ec 10 42
       2.9910426 8.645453 1.5829589 36.230846
000120 4f 5a a8 40 05 8e 02 41 d6 b0 9b 42 6d 98 4e 40
       5.261024 8.159673 77.84538 3.2280533
000130 ca 7f 62 3f 07 eb 39 40 56 ba a4 42 a1 aa c4 40
       0.8847624 2.90497 82.36394 6.1458287
000140 0a f0 83 41 fb 57 f4 41 12 9e 06 41 fb bd 52 42
       16.492207 30.54296 8.413591 52.685528
000150 94 ff 2b 40 2e 78 d0 41 73 45 72 42 50 6f 26 41
       2.6874743 26.058681 60.56782 10.402176
000160 0c 82 e8 40 a0 7d 3c 43 af 57 d3 3d 40 c1 52 43
       7.265875 188.49072 0.10319459 210.75488
000170 95 30 df 40 f2 ab 50 42 2a 26 a8 42 bd e1 9f 41
       6.9746804 52.167915 84.07454 19.985224
000180 82 80 91 41 e8 fe da 42 44 02 e6 40 dd 0f 1f 41
       18.187748 109.49786 7.1877766 9.941373
000190 17 8b 38 42 bb 84 01 41 eb de 14 43 25 a5 bf 41
       46.13583 8.094905 148.87077 23.955637
0001a0 02 02 f5 42 00 f8 bd 41 c0 a8 10 40 3f f6 06 40
       122.50392 23.746094 2.2602997 2.1087797
0001b0 88 2e 8e 3f 7f 04 84 40 c3 37 b3 3f eb 72 56 42
       1.110795 4.125549 1.4001392 53.612225
0001c0 22 d7 d8 3f 76 47 22 43 0d 56 ad 3f 2f 1a ed 41
       1.6940653 162.27914 1.3541886 29.637785
0001d0 77 1b d9 40 38 44 0e 35 fe 06 4d 42 18 d6 c8 3f
       6.7846026 5.2998394e-07 51.25683 1.5690336
0001e0 ac bf a4 41 55 1b a7 41 17 16 4c 41 17 e6 8e 40
       20.59359 20.888346 12.755393 4.465587
0001f0 a6 ee 00 42 c2 7e 45 40 db c7 bf 41 7e 62 22 42
       32.233055 3.0858617 23.972586 40.596184

fc2.weight f4 [128, 130]
000000 b1 7d 31 3d 56 22 a5 3c 83 84 a3 be 67 56 1e bd
       0.04333276 0.020157974 -0.31937036 -0.03865662
000010 a0 1b 55 3d 7a 06 90 3e f9 fa e5 bc 0e dd 1c be
       0.0520283 0.2812994 -0.028073775 -0.153187
000020 d8 54 17 bf bf 37 75 be 58 c5 0c be 97 f0 88 bd
       -0.59113836 -0.23947047 -0.13747156 -0.06686514
000030 28 66 80 be a8 df 17 be 2c 11 91 3e 47 15 3e 3e
       -0.2507794 -0.14831412 0.28333414 0.18562804
000040 03 e4 bb be f3 74 7f 3e f8 2c 62 be 97 c2 72 3c
       -0.36697397 0.24946956 -0.22087467 0.014816902
000050 77 d1 c8 bd aa ec b7 be 06 23 34 3b 65 bf 1d 3d
       -0.09805577 -0.35922748 0.0027486696 0.038512606
000060 e7 19 85 3d 57 a6 39 be a3 ac 16 bd c6 fa ed 3d
       0.06499081 -0.1812986 -0.036785733 0.11620097
000070 f1 d0 51 bd 23 a9 4e 3e ab fa 07 3f 2e 92 aa 3d
       -0.051224653 0.20181708 0.53116864 0.08328663
000080 c8 53 84 bd a2 10 fb 3d c9 99 4e bd f7 ae 3d 3d
       -0.064612925 0.12259032 -0.05043963 0.046309438
000090 1f ce 14 be 71 a5 14 3d bf dc 27 3e 9e 3d 51 3c
       -0.14531754 0.03629059 0.16392802 0.012771038
0000a0 6e b1 3e 3c 21 44 d2 be 1f 3e 24 be 6b 88 9c bd
       0.011638982 -0.41067603 -0.16039322 -0.07643207
0000b0 f6 60 78 3e fa ca d4 3b ed fd f6 3d 9d 1b 8d 3d
       0.24255738 0.0064939233 0.12060151 0.068900324
0000c0 90 a8 e7 3d f7 3d 00 bb 3e 8f ba 3d 5c a9 8d bb
       0.113114476 -0.0019568184 0.091093525 -0.0043231677
0000d0 71 66 96 3d e0 c5 91 bd b5 30 d4 be af 53 1d be
       0.07343758 -0.0711782 -0.4144341 -0.15363954
0000e0 af 4c 55 be e6 f8 80 3d a0 3c 4f 3e 6c fa 4a be
       -0.20830034 0.062974736 0.2023797 -0.19822091
0000f0 ed bb 68 3d 4f b0 55 be ae 6f c1 3d bb 04 a6 3b
       0.056819845 -0.20868038 0.09445129 0.005066482
000100 40 95 ce 3c fc 3e 0e be b6 5b 97 be 0a 2e 3c be
       0.025217652 -0.13891214 -0.29562157 -0.18376938
000110 34 3f 31 bf 40 2e aa 3e e7 53 15 3e fb 00 97 bd
       -0.69237065 0.3323841 0.14582787 -0.07373234
000120 33 80 32 bc ab d1 91 be c5 8e d1 bd cc 32 c1 bc
       -0.010894823 -0.28480276 -0.10232309 -0.023583792
000130 73 9b e0 3d 92 28 b5 3e 09 56 0e 3e d6 c6 03 3d
       0.109671496 0.35382515 0.13900007 0.032172047
000140 d5 cb 8b 3b 9d 16 9d bd 35 d6 f0 3d 9a 7c 4e bd
       0.004266242 -0.07670329 0.11759607 -0.050411798
000150 02 4f 8d 3e b4 a0 29 be 96 90 fb 3a da ae 73 be
       0.2759934 -0.1656521 0.001919287 -0.2379717
000160 23 71 44 3e 5a 55 1e be 49 18 99 3e fa 5a 05 3d
       0.19183783 -0.15462247 0.2990134 0.032557465
000170 ef 77 54 3e 55 a5 1f 3d e9 5c 0e 3c bf f7 c7 be
       0.20748876 0.038976032 0.008689144 -0.39056203
000180 e8 a9 c9 3d 72 87 5b be cc 4f d0 be 9c 9a 9b be
       0.0984686 -0.21438387 -0.4068588 -0.30391395
000190 25 d2 cf be 24 68 22 bd 4f 03 af bd 30 f2 2d be
       -0.40590015 -0.039650097 -0.08545553 -0.16986918
0001a0 92 91 52 bd 38 68 87 3d c2 90 87 3e 86 42 47 be
       -0.051408358 0.06611675 0.2647763 -0.1945897
0001b0 9c 6e b0 3c 43 77 99 bb 61 a8 3e 3e 3d 81 00 3e
       0.021537118 -0.0046834066 0.18618919 0.125493
0001c0 c8 ec 70 bf 6c bb 87 3d d4 af 87 be 12 4f aa 3e
       -0.941113 0.06627545 -0.26501334 0.3326345
0001d0 c9 e7 40 be d4 8f ee bb ad b0 9f be 15 d8 4c 3e
       -0.18838419 -0.0072803292 -0.3118948 0.20004304
0001e0 dc 48 b2 bc e5 0a 1f bc 60 27 0c be e2 74 29 be
       -0.021763258 -0.009707187 -0.13686895 -0.16548494
0001f0 b4 95 bf be e5 06 a6 3c 04 bc b9 3b e0 36 5e be
       -0.37418902 0.02026696 0.005668165 -0.2170062
000200 16 e5 fb 3d 70 ca 4e 3c af 16 8d 3d 6f c4 dd bd
       0.12299554 0.012621507 0.06889092 -0.10828482
000210 b7 e1 f6 3d a9 1d 16 bd 86 1f 5a bd c2 37 17 be
       0.120547704 -0.03664938 -0.05325272 -0.14767364
000220 a0 a7 7c be 28 a4 ba bd c9 c3 06 ba 01 50 3f 3d
       -0.24673319 -0.091133416 -0.00051408686 0.046707157
000230 99 e6 53 be 6b 8c ff bd 31 fd 6a 3e 63 93 08 be
       -0.20693435 -0.124779545 0.22948147 -0.13337474
000240 cc bb 5d 3c 72 40 09 3e bb 65 07 bf df 49 4d 3e
       0.013533544 0.1340349 -0.52889603 0.20047711
000250 da 4f 6e bd 80 6d 60 3c 5f 20 05 3e 40 6d 04 be
       -0.05818162 0.013697982 0.1300063 -0.129323
000260 ff 43 59 bf 13 ab b3 3e 4a 99 c6 bd 49 9a 16 be
       -0.8486938 0.35091457 -0.09697206 -0.14707293
000270 4f 54 83 3e 6e cb b7 3d 44 e6 5c bd 39 bb c4 bd
       0.2565026 0.08974348 -0.053930536 -0.096060224
000280 73 c9 20 be d3 16 62 3e 7c a0 13 bd c2 90 41 be
       -0.15701847 0.22079019 -0.03604172 -0.18902877
000290 93 88 4c bd a7 4f fa bc 23 f0 69 be ba d0 2e be
       -0.049934935 -0.03055556 -0.22845511 -0.1707181
0002a0 6f 1d 57 bc 6b a5 2a bc b4 c0 f0 be 83 6f f1 bd
       -0.013129576 -0.010415415 -0.4702202 -0.11788847
0002b0 cc 01 e5 bd 3a 0d 80 be 99 8c 53 bd 82 c1 05 3e
       -0.11181983 -0.2501009 -0.051647756 0.13062099
0002c0 4d 1b 7b 3e 5f 60 b0 3e c1 b2 ad bd 67 c2 56 3e
       0.24522133 0.34448525 -0.0848136 0.20972596
0002d0 7f 12 81 bf 2c dc f9 3d f1 18 34 3e 95 9a fb 3c
       -1.008377 0.122001976 0.1758764 0.030713359
0002e0 d1 91 59 3d c8 f9 bb bd 56 b7 c9 bd be c0 d0 3d
       0.053117577 -0.09178501 -0.09849422 0.10193013
0002f0 e1 8e c5 3b ea 01 e5 bd 18 8d f5 bd d2 f9 f6 be
       0.0060289954 -0.11182006 -0.11989802 -0.48237473
000300 62 6a 89 3e 2a a6 ca 3d 8d b7 3a 3e 06 f4 f8 be
       0.26838976 0.098949745 0.18234082 -0.48623675
000310 56 25 0c bf 6c f9 57 be 7d df c8 be 95 de 72 3e
       -0.5474447 -0.2109124 -0.39233008 0.23717721
000320 1a eb 03 3e dc 85 3f bd 80 55 71 be 20 eb 8b 3c
       0.12882653 -0.046758518 -0.23567772 0.01707989
000330 4a 55 6c bc 27 34 93 3d e9 64 6d 3e 95 42 7c be
       -0.014424631 0.07187682 0.23183025 -0.24634774
000340 17 62 23 3e 56 a8 84 be fd 1c f6 bb 2a 17 d5 3a
       0.15955387 -0.2590968 -0.00751078 0.0016257514
000350 bc f4 20 3e da f2 e5 bc e4 11 91 3e 51 67 44 bf
       0.15718359 -0.028069902 0.28333962 -0.7672015
000360 5f fc 85 bb 28 44 82 3e 23 4f 2f 3e 29 47 31 bb
       -0.004088923 0.25442624 0.17120032 -0.0027050471
000370 2c 8b 59 3e 1e d3 1c bd 9c b4 34 3e e1 6a 0c 3c
       0.21244496 -0.038287275 0.17647022 0.008570404
000380 81 2d 74 bd fc c7 93 be fe 1d 31 3d 72 1a bf be
       -0.05961371 -0.28863513 0.043241493 -0.37324864
000390 ed a3 91 be 13 64 c5 be ca 42 2b be 69 1b 12 3e
       -0.28445378 -0.38552913 -0.16724697 0.14268269
0003a0 8b 73 81 be 48 38 d5 be 51 91 9a 3c ae f8 af be
       -0.25283465 -0.41644502 0.01886812 -0.34369415
0003b0 ed ae 6b 3e 94 b7 a9 bb 0b 6a 4d be 33 c6 0a 3e
       0.23015948 -0.005179355 -0.20059983 0.1355217
0003c0 65 44 da b9 a7 c4 17 3e 8e 17 1b be c9 d3 96 3d
       -0.00041631158 0.1482111 -0.15145704 0.073646136
0003d0 b3 13 b1 be 71 fb bf be 51 88 f9 3d d7 b9 0b 3d
       -0.34585342 -0.37496522 0.121842034 0.034112778
0003e0 d5 ad 97 be 85 75 04 bf 32 eb 3b be 4c 91 a8 3d
       -0.2962481 -0.5174182 -0.18351439 0.08230838
0003f0 3d 3b ba 3e 70 3b 6f bd 53 ee f9 3d 9a df 22 bd
       0.3637332 -0.058406293 0.1220366 -0.039764024

fc2.bias f4 [128]
000000 45 e0 7d be 1d 4c 86 be 5f 0c 02 be a8 ae 20 be
       -0.24792583 -0.26229945 -0.12700032 -0.15691626
000010 70 32 ed bd e0 23 c5 bd 17 2e 89 be ae 28 40 be
       -0.11581886 -0.09625983 -0.26792976 -0.18765518
000020 bb 13 44 be 35 ef 23 be 1e 2a ad bd 54 ea 1a bd
       -0.19148152 -0.16009219 -0.08455299 -0.03782113
000030 83 0c 37 be 31 79 23 be b5 9b 75 bd de 0b 3f be
       -0.17875867 -0.159642 -0.059962947 -0.1865687
000040 c0 25 41 be 6e 76 7b bd 3b d5 8d be ad 1b 2d be
       -0.18862057 -0.06139224 -0.27701744 -0.16905089
000050 87 0b 20 be 6b ca 4c be 2e 89 46 be e3 7e 1f be
       -0.15629397 -0.19999091 -0.19388267 -0.15575747
000060 eb ff 93 be 11 e1 3b be 72 b7 74 bd b5 3f 7a be
       -0.28906187 -0.18347575 -0.05974526 -0.24438365
000070 11 c3 bd bd 22 93 8b be 80 3b 2f be 67 41 49 be
       -0.092657216 -0.2726069 -0.17112541 -0.19653855
000080 55 a8 09 be 0d 02 30 be af 75 c9 bc 57 cb 12 be
       -0.1344312 -0.17188282 -0.024592249 -0.1433538
000090 d5 99 24 be ba ee b9 bd 95 76 1a be f4 69 21 be
       -0.16074307 -0.090787366 -0.15084298 -0.15763074
0000a0 e0 22 2a be e9 a9 4b be 55 fe 2a be 5c 72 6e be
       -0.16614866 -0.19889034 -0.16698582 -0.23285812
0000b0 31 2c 62 be 8e 3e d8 bd 24 f0 4a be 51 eb 4c be
       -0.2208717 -0.10558806 -0.19818169 -0.20011641
0000c0 1a 38 49 be 43 82 3a be c0 c8 09 be 9f a1 eb bd
       -0.19650307 -0.18213753 -0.13455486 -0.11505436
0000d0 10 ff 10 be ad ee 3b 3d e0 2a 60 be 19 97 be bd
       -0.14159799 0.045881916 -0.21891356 -0.09306163
0000e0 06 bc ed bd c7 80 04 be 5b 01 4a be 50 05 eb bd
       -0.11608128 -0.1293975 -0.1972708 -0.11475623
0000f0 6c ef 15 be 73 bd 35 bd 59 39 15 bd ed 0f 15 be
       -0.14642113 -0.044370126 -0.036431644 -0.14556856
000100 28 2a 71 be b0 f5 56 be bc 16 b8 bd 02 ce 46 be
       -0.23551238 -0.2099216 -0.08988711 -0.19414523
000110 dc d8 24 be a6 d8 1f be af 32 0f be ea f4 a4 be
       -0.1609835 -0.15609989 -0.13984178 -0.32218105
000120 4c 90 29 be bc 82 29 be ae ea 0a be 49 11 77 be
       -0.16558951 -0.16553777 -0.13566086 -0.24127688
000130 3c 9c e3 bd 44 83 66 be d2 8d 88 bd b1 e7 af bd
       -0.11113784 -0.22511011 -0.06667675 -0.085891135
000140 9d 95 20 be 25 43 6e be 42 f2 26 be 0f 47 c6 bd
       -0.15682073 -0.23267801 -0.16303352 -0.09681522
000150 c2 96 7d be c4 ec 32 be 5f a7 04 be 3a 00 90 be
       -0.24764541 -0.17473131 -0.12954472 -0.28125173
000160 85 2b 39 be c8 db 51 be df cb 09 be 1c 53 74 be
       -0.18083008 -0.20493996 -0.13456677 -0.23859829
000170 b9 ce 12 be 7f 38 e7 bd 2c d2 37 be 97 66 0e be
       -0.14336671 -0.11290073 -0.17951268 -0.13906322
000180 4d c7 11 be 20 0c 51 be d3 16 44 be b3 d4 58 be
       -0.14236183 -0.20414782 -0.19149332 -0.21174888
000190 8b d3 3c be dc 44 98 be e6 33 52 be 2f ff 54 be
       -0.18440072 -0.29740036 -0.2052761 -0.2080047
0001a0 78 69 80 be eb b0 83 be 07 de 98 bd bb 7d 0b be
       -0.25080466 -0.25720915 -0.07464223 -0.13622181
0001b0 6b 7e a1 bd 27 cd 1a be 24 57 fc bd e5 ef ba bd
       -0.078854404 -0.15117322 -0.12321308 -0.091277875
0001c0 e3 bd 92 bd 0d 59 fd bd 30 da a6 be 10 e0 4e be
       -0.07165124 -0.12370501 -0.3258834 -0.2020266
0001d0 bc bd c8 bd d4 bc 0d be e2 cd ff bd cb 55 6f be
       -0.09801814 -0.13841563 -0.12490441 -0.23372571
0001e0 78 fc 0d be fe 96 4c be 40 9f 9c bd 4d fe 0a be
       -0.1386584 -0.19979474 -0.07647562 -0.1357357
0001f0 99 8c 11 be 7b 8a 8a bd 7a 32 2e be 21 dd 15 be
       -0.1421379 -0.06764694 -0.17011443 -0.14635135

fc3.weight f4 [1, 128]
000000 fc ba 12 bd 52 a6 2e bd ec 3b 9e bc d4 b7 88 3b
       -0.035822853 -0.042639084 -0.019315682 0.0041723046
000010 a4 3b 14 bb 52 5e f3 3c 12 f5 19 3c f2 96 15 bb
       -0.0022618556 0.029708061 0.009396808 -0.0022825566
000020 c5 e4 30 bc 08 75 c5 bc 45 3a ff bb 2d 14 fd 3c
       -0.01079673 -0.024103656 -0.0077889287 0.03089341
000030 1c 2b 93 bc 01 ea 8a 3a 1b 71 81 bc 58 af 4a bc
       -0.017964892 0.0010598303 -0.015801003 -0.012370907
000040 9a 88 95 bb 4e 43 82 3c 56 13 aa 3d ab 71 4c 39
       -0.0045634033 0.015901234 0.08304469 0.000194973
000050 78 95 97 ba 80 74 39 3c 9c b4 38 3c c8 ce a0 3c
       -0.0011564931 0.01131928 0.011273529 0.019629851
000060 18 a7 66 3d e3 76 87 ba b8 75 bb ba 78 32 22 bd
       0.056311697 -0.0010335114 -0.0014302051 -0.039598912
000070 ff 74 ad 3c 78 23 21 be 1f 3d 09 3c a6 15 15 3c
       0.021173952 -0.15736187 0.008376389 0.0090994
000080 dc da 8b bc 18 e8 70 3a 01 0c ad 3c 04 df 5b bc
       -0.017072134 0.0009189858 0.021123888 -0.01341987
000090 45 18 16 bb 75 07 03 3d 2a 92 55 3d 16 9e 0a 3c
       -0.002290265 0.031989533 0.052141346 0.008460542
0000a0 ae 33 92 3c 24 9d c9 3d 1f 88 3a 3d 2c 10 87 3a
       0.017846908 0.09844425 0.04553997 0.0010304502
0000b0 db e7 9a 3e 5c 3c 8a bc ee a1 1e bc 30 7d ad 3c
       0.30255017 -0.016874485 -0.009682162 0.021177858
0000c0 56 d0 6c bc 3f 3e eb bd 53 b8 8a bd 70 17 ab be
       -0.014453968 -0.11486482 -0.06773438 -0.3341632
0000d0 a1 2c a8 3b 01 f3 f0 3c cf fd 83 bc ae d2 d6 bc
       0.0051322733 0.029412748 -0.016112236 -0.026223507
0000e0 ed 0a 61 3c e0 50 d6 bc 7a 76 f2 bb 21 30 94 3b
       0.013735515 -0.026161611 -0.0073993774 0.004522339
0000f0 60 6e 1f bc 78 a1 92 bb 91 61 51 3c 53 04 71 bb
       -0.009730905 -0.004474815 0.012779609 -0.003677626
000100 bc cc a4 3d 06 74 8d 3c 85 24 26 3b eb c5 19 bd
       0.080468625 0.017267238 0.0025351357 -0.037542265
000110 78 68 7f bc b2 aa f1 3b 80 f6 a5 b9 cc 1c 4d bd
       -0.015588872 0.007375085 -0.0003165491 -0.05007629
000120 b8 73 de bc 47 14 44 bc 7c 81 9a 3c b7 34 26 3d
       -0.027154788 -0.011967725 0.018860571 0.040577617
000130 b2 73 02 3b fc 40 c1 3c ec 98 ad 3b d6 9b 3a 3c
       0.0019905386 0.023590557 0.0052977707 0.011389693
000140 4a 38 00 3b de 25 a0 3b 98 56 79 bb 2a 15 32 3b
       0.00195648 0.0048873266 -0.0038045999 0.002717326
000150 ee 2e 59 3d da 63 3c bc a6 bc 1b bb 92 6d 85 bc
       0.05302327 -0.011498416 -0.0023763566 -0.016287599
000160 37 b9 74 3c de b9 b9 3c ae a7 13 bb 3a 1d ec bb
       0.014936737 0.022671636 -0.0022530365 -0.0072056325
000170 15 32 85 bc d1 29 27 3c f0 9f 1b 3c 32 f3 71 ba
       -0.016259233 0.010202841 0.009498581 -0.00092296593
000180 b0 fc 59 bc 01 27 f1 bb c7 ce 9e 3b 0b 69 08 3c
       -0.013304874 -0.007359386 0.004846427 0.008325825
000190 f9 85 a1 bc 1b 16 75 3d 79 fe 6e 3b 9a b8 c9 bc
       -0.019717203 0.059835535 0.0036467595 -0.024624158
0001a0 1e a0 95 3d 73 2f 86 3c cb 15 71 bc 99 b1 9a bc
       0.073059306 0.016380047 -0.0147146685 -0.018883513
0001b0 37 42 f3 3c f2 c2 a2 bc c6 6a fe 3b e0 52 e0 3b
       0.02969466 -0.019868348 0.007764193 0.006845817
0001c0 72 4e 1a 3d 91 f4 b9 bc ef 18 9f 3d 04 83 18 bb
       0.037672468 -0.022699626 0.077684276 -0.002327145
0001d0 7e 84 0e 3c fa ed e3 3c 7a ce 11 3c 09 af 20 ba
       0.008698581 0.027823437 0.0088993255 -0.0006129598
0001e0 2f 71 8a bc f2 1e b4 bd 64 18 ed bb 33 ab 3e bc
       -0.016899673 -0.08794965 -0.0072355736 -0.011637497
0001f0 76 09 c6 bc ea 7b 8a bc e5 ee 93 3c 91 31 0b bc
       -0.024174433 -0.01690479 0.01805825 -0.008495704
