checkpoint_actor.pth (torch_old, 86660 bytes, 18 tensors)

bn1.weight f4 [24]
000000 a7 c2 bf 3e ff a2 61 3e a3 ae b0 3e 41 90 be 3e
       0.37453195 0.22034834 0.34508237 0.37219432
000010 56 7f 80 3f 13 5c 4c 3f 4c 2c 02 3e c6 c1 e1 bc
       1.003886 0.79827994 0.1271221 -0.027558219
000020 1b 09 ea 3e 0f d9 95 3e 74 21 a1 3e 24 7b 82 3e
       0.45710072 0.29267165 0.31470835 0.25484574
000030 4a 4a 02 3f 90 9f 82 3f fb 26 a5 3e c0 17 b0 3e
       0.50894606 1.0204945 0.32256302 0.3439312
000040 4d b8 b8 3e 3e 20 aa 3e a0 ab a3 3e b4 e1 c7 3e
       0.3607811 0.33227724 0.31966877 0.39039385
000050 d2 9a 5d bf 8c 53 2a 3f 6a 6c a2 3e 85 df a5 3e
       -0.8656436 0.6653373 0.31723338 0.32397094

bn1.bias f4 [24]
000000 73 7a 94 3d 2d f6 33 be 2b 15 13 3e c0 76 aa bd
       0.07249918 -0.17574377 0.14363544 -0.08323431
000010 50 00 34 3f 66 bb b7 3d e2 ca 80 bc bf ee d8 3e
       0.70312977 0.0897129 -0.015721742 0.4236965
000020 68 8b bb be 88 ca 08 bf f8 d3 e4 3d ae a1 38 be
       -0.36629796 -0.5343404 0.11173242 -0.18030426
000030 a1 47 14 3f 12 1b a4 3d 28 fe 6c be 29 67 a1 bc
       0.579218 0.08012976 -0.23143828 -0.01970251
000040 7b 5f 29 3d aa 92 71 be e7 f5 13 3d 1d 78 7f bd
       0.041350823 -0.23591104 0.036123183 -0.06237041
000050 fd d3 cc 3d 00 4a 20 3e d1 36 37 3e b6 da be bc
       0.10001371 0.15653229 0.17892005 -0.023297649

bn1.running_mean f4 [24]
000000 80 9b cf c0 71 8a c4 be d8 c9 c7 40 f9 09 46 3e
       -6.487732 -0.38386872 6.243389 0.19339742
000010 00 00 00 00 7b 8f 71 40 d8 c9 c7 40 f9 09 46 3e
       0.0 3.7743824 6.243389 0.19339742
000020 8a f5 d4 c0 f7 f6 cb be 13 20 d6 40 84 ba 1b 3e
       -6.654973 -0.39836857 6.6914153 0.15207869
000030 00 00 00 00 99 7e 71 40 13 20 d6 40 84 ba 1b 3e
       0.0 3.773352 6.6914153 0.15207869
000040 76 12 da c0 c0 79 d5 be 9c 96 e5 40 bf 12 ce 3d
       -6.8147535 -0.4169445 7.174635 0.10062169
000050 00 00 00 00 32 d5 70 40 9c 96 e5 40 bf 12 ce 3d
       0.0 3.7630124 7.174635 0.10062169

bn1.running_var f4 [24]
000000 b5 54 a4 41 06 40 82 3f 0c a7 c1 43 5f b0 5d 41
       20.54136 1.0175788 387.30505 13.855559
000010 3d 3c 00 42 70 ee 4f 40 0c a7 c1 43 5f b0 5d 41
       32.058826 3.248928 387.30505 13.855559
000020 6d e7 9e 41 db d1 85 3f 09 99 c5 43 73 3d 62 41
       19.863 1.0454668 395.1956 14.140002
000030 69 e5 09 42 12 bd 57 40 09 99 c5 43 73 3d 62 41
       34.474033 3.370915 395.1956 14.140002
000040 42 61 99 41 b7 95 88 3f 59 a5 ca 43 5c e0 6d 41
       19.17249 1.0670689 405.29178 14.867275
000050 00 17 15 42 b7 fd 6a 40 59 a5 ca 43 5c e0 6d 41
       37.27246 3.6717355 405.29178 14.867275

fc1.weight f4 [128, 24]
000000 bf 37 ea bc 9e 87 23 bd 0f 13 cc bc 6e 96 8f be
       -0.028591035 -0.039924257 -0.024911432 -0.28044456
000010 7d 92 3e 3c 2e 79 10 be c7 97 1f 3e 9a f6 88 be
       0.011631605 -0.14108726 0.15585242 -0.26750642
000020 85 66 ed 3c f6 88 42 3e 92 8c d7 3c ff 13 de 3c
       0.02897955 0.18997559 0.026312146 0.027109144
000030 a5 3e a2 bb b2 27 77 3d a0 70 b1 3c 4e 32 88 bc
       -0.0049513155 0.06034059 0.02166015 -0.01662555
000040 1d f2 9a ba 11 bf ca bd b5 82 11 3d 43 de e5 3c
       -0.0011821423 -0.09899724 0.035525043 0.028060084
000050 cb 26 18 bd 46 55 9b 3d 08 87 54 bc 01 6c 30 bd
       -0.03714637 0.07584624 -0.012971647 -0.04307175
000060 a7 95 ae 3e f8 e1 83 bc c1 e3 b7 3d f2 95 e8 3e
       0.3409855 -0.016098961 0.089789875 0.454269
000070 54 2b ec bd 69 4b 19 be 33 ae 84 3e 36 6c e8 be
       -0.11531702 -0.14970173 0.25914153 -0.45395058
000080 05 c4 5b 3e 57 c9 a9 bd 94 ca 0f be 7f 04 ec 3e
       0.21461494 -0.08290356 -0.14042121 0.4609718
000090 c2 82 8c 3e a2 3a 2c 3c e3 d3 90 be c9 f5 3c 3e
       0.2744351 0.010512026 -0.28286657 0.18453135
0000a0 d7 18 d7 3d 0b 13 74 3d c0 d6 be 3d b4 e1 a6 3e
       0.10502785 0.059588473 0.09318304 0.32594073
0000b0 d9 a3 1e bf 01 07 23 3e cf e3 7e 3d fd 85 8d 3e
       -0.6196876 0.1592064 0.062228974 0.27641287
0000c0 fc 7c 06 be 7e 3a b9 be 8c 94 cd bc ce 00 f6 3e
       -0.13133615 -0.36177438 -0.025095247 0.4804749
0000d0 b0 ec 61 3e ca e4 83 3d af ff f7 bd 79 6e c8 3b
       0.22062945 0.064401224 -0.12109315 0.006116685
0000e0 2f 83 4e be a5 e0 0c bf 58 80 3f be 02 65 63 bd
       -0.2016723 -0.5503028 -0.18701303 -0.05551625
0000f0 e2 82 61 bc cf 73 e2 bd 88 6b 55 be f6 4b 1a 3e
       -0.013764115 -0.11057245 -0.20841801 0.1506804
000100 3c b3 f2 3c 0c 34 f0 be ca 86 06 3f c7 9c 9f be
       0.029626481 -0.4691471 0.5254942 -0.311743
000110 e7 1b ea 3e 84 63 f7 bc 18 b6 df 3e 36 5f 1d be
       0.45724413 -0.03019882 0.43693614 -0.15368351
000120 f3 90 33 be bf b0 7d 3f c0 62 98 3d fc 20 01 bc
       -0.17535762 0.9909782 0.0744071 -0.007881399
000130 2d a4 bb bd 1f d2 ab 3c c5 52 1f bc a6 f7 27 3c
       -0.091621734 0.020974217 -0.009724324 0.010251915
000140 fb c0 78 be 82 91 d4 3e c4 9e bd be 3a 23 99 bd
       -0.24292366 0.41517264 -0.3703519 -0.07477422
000150 86 75 e8 3d 3e 4f d1 bd f9 0b 5f be f1 60 b3 bd
       0.11350541 -0.102201924 -0.21781911 -0.087587245
000160 b3 bf 84 bd 84 ba 07 3f f5 c3 b3 3e c5 b7 8f be
       -0.06481876 0.53018975 0.3511044 -0.28069893
000170 eb 69 55 be ee 76 11 bf 60 ac 76 3e de 92 34 be
       -0.20841186 -0.568221 0.24089193 -0.1763415
000180 15 c8 ce be fe a2 bc 3e 62 80 df bd fa e2 c8 3c
       -0.40387025 0.36843103 -0.10913159 0.024522293
000190 cd 66 d6 be 6a e5 8e 3d ed fb 46 3d 45 4b 0f be
       -0.41875306 0.06977351 0.0485801 -0.13993557
0001a0 fc 10 88 be 2d f1 da 3e 5a 71 9a be 1d c3 80 3d
       -0.26575458 0.42762128 -0.30164605 0.06287215
0001b0 50 f3 7b be 0b f2 53 be ad 24 8c bd 32 d3 d1 bd
       -0.24604535 -0.20697801 -0.06842933 -0.102453604
0001c0 83 f1 a1 be 20 b3 aa 3e bc f9 ff bc 6c de 77 bb
       -0.3162957 0.33339787 -0.031247012 -0.0037821783
0001d0 8e 05 19 be 11 72 1c bf 85 0c 54 be 75 d7 4a bd
       -0.14943525 -0.6111155 -0.20707901 -0.049521882
0001e0 b5 f4 ed be 99 e1 8f be b4 d1 f0 3e 91 0d 8e be
       -0.4647576 -0.28101805 0.4703499 -0.27744725
0001f0 84 cd 33 be e8 40 fb 3d 57 ab ca 3e 11 86 00 3e
       -0.17558867 0.12268239 0.39583847 0.12551142
000200 fe 73 b3 be 68 90 4b be fc 2c 7f 3e a8 d2 d6 3e
       -0.35049433 -0.19879305 0.24919504 0.41957593
000210 f6 43 5f be 31 1d 17 be e1 be 8e 3d 98 ea 0e 3f
       -0.21803269 -0.1475723 0.06970001 0.5582671
000220 ce 0a 0a be f9 17 fa 3d ef 97 00 be 52 46 07 3e
       -0.13480684 0.12211604 -0.12557958 0.13210419
000230 1a 65 90 3e 0d dd 01 bf 9b ec 90 ba 60 4f e7 3d
       0.28202134 -0.5072792 -0.0011056842 0.112944365
000240 75 ce de bd 64 db 75 3e 6b ce 62 3e 91 b7 84 be
       -0.10879222 0.24009472 0.22149055 -0.259213
000250 d3 27 29 bf cb 1a 78 be db 0d 00 3f d7 df 92 bd
       -0.6607639 -0.2422897 0.5002114 -0.071716
000260 36 c9 9d 3d 45 78 d6 3d f0 91 57 3d 4a 24 53 be
       0.077043936 0.10472158 0.05262941 -0.20619312
000270 7a 20 c6 be ec d2 76 be d7 ca 18 3e e4 65 a9 be
       -0.38696653 -0.24103898 0.14921127 -0.3308555
000280 e6 f0 4d 3e da ae 4e 3c 17 b6 2e bd 8e 54 ac 3e
       0.20111427 0.01261493 -0.042654123 0.3365826
000290 41 48 b4 bd 25 6a 06 bd e0 7f ab bd 03 59 73 3e
       -0.08802844 -0.03281607 -0.083739996 0.23764424
0002a0 85 60 d9 3c a1 b8 2d 3d 46 4b b5 3c 70 a7 b9 3c
       0.026535282 0.042412404 0.02213062 0.022662848
0002b0 47 57 14 3d e8 69 83 3d 05 ae 0e bd c4 06 ea bd
       0.036216047 0.064166844 -0.034833927 -0.11427072
0002c0 94 13 37 3d 76 78 f3 3d 25 df ce 3c 59 21 59 3d
       0.044696406 0.118882105 0.025252888 0.05301032
0002d0 1c 49 b3 bd ea 89 01 bd a1 70 9f bb 97 3a 04 3c
       -0.08754179 -0.031625666 -0.0048657213 0.0080706095
0002e0 72 f6 df bc b8 be 15 bd fe 88 05 3d 40 74 07 bd
       -0.027339194 -0.036558837 0.03260135 -0.03306985
0002f0 b9 74 7a bd a1 cf 49 bd dd c7 9c 3b 67 cf 68 3d
       -0.06114647 -0.049270276 0.0047845677 0.05683842
000300 0c 01 25 bd 6a ae 00 bc 2f 73 e7 bc 3b c4 20 3e
       -0.0402842 -0.007854084 -0.028253166 0.15699856
000310 f2 37 09 be f3 0d 27 bd 22 ae 2a bc a8 69 a4 be
       -0.13400248 -0.040784787 -0.010417493 -0.3211186
000320 50 4d da bc 3b 66 bb 3e 4b d6 ca bc 28 0a 04 3e
       -0.026648194 0.36601433 -0.024760386 0.128945
000330 1b 8b aa bd 0f c3 3f bd 26 fe 87 3d 40 5c ce bc
       -0.083273135 -0.04681688 0.06640272 -0.025190473
000340 eb b4 1f 3c 09 ab 00 be 78 4f b2 3d 5c d9 02 3e
       0.009747724 -0.12565245 0.08706564 0.12778229
000350 f8 22 d1 be 76 c6 f5 3c e0 d2 13 bd 6e cb 2b 3d
       -0.40846992 0.03000186 -0.036089778 0.041942053
000360 58 fd 99 be 6a 28 eb 3c fa 30 0a be 66 cf c7 3c
       -0.30076098 0.028705794 -0.13495246 0.024390887
000370 4c 1e 1c 3d 8b f3 e5 be de 56 30 3c 97 72 98 be
       0.03811483 -0.4491237 0.010762898 -0.29774925
000380 b7 2d 4b be 7e da bd 3e 84 24 b7 be ce 6f bb 3d
       -0.19841658 0.3708076 -0.35770047 0.091521844
000390 6b c7 b3 bc a0 d1 a6 be 0f 9a 1b bd ef 04 1c 3d
       -0.021945676 -0.32581806 -0.03798872 0.038090643
0003a0 12 cb 1e be 03 60 18 3e e8 da 2f be b4 0f e6 3c
       -0.15507153 0.14880376 -0.1717335 0.02808366
0003b0 f8 a5 ba be 26 3d cf be c2 ac 37 be 9a d0 51 3d
       -0.3645475 -0.4047634 -0.17936996 0.05122433
0003c0 7e f1 24 bd 37 7e 94 3c 61 5a 98 bc e2 9b 32 bd
       -0.040269367 0.01812659 -0.018597784 -0.043605693
0003d0 36 16 03 be 03 a7 f9 bc 27 c7 ce 3d 02 d4 95 be
       -0.12801442 -0.030475145 0.10096579 -0.29263312
0003e0 97 47 f6 3d 87 5f 45 3e ec 07 19 bd 0a b1 41 3d
       0.120253734 0.19274722 -0.03736107 0.04728798
0003f0 c2 88 1f be 84 59 22 bd 94 04 37 3d 49 0b 04 bd
       -0.15579513 -0.03963615 0.0446821 -0.032237325

fc1.bias f4 [128]
000000 e5 ad 92 be ab 89 9c be 76 ac b7 3e e9 fd 89 3d
       -0.28648296 -0.30573782 0.35873765 0.06737883
000010 a7 43 9e be 99 15 cc 3c eb 66 09 be 91 3c a8 be
       -0.3091099 0.024912642 -0.13418166 -0.32858709
000020 67 0e b6 be 15 fe fc be 3d 9c 3f be 68 5f 59 be
       -0.35557863 -0.494126 -0.18711944 -0.21227801
000030 c5 e2 19 be 71 7d 70 be 0d 42 97 bd c3 0e 1c be
       -0.15027912 -0.23485352 -0.07385645 -0.15240006
000040 e4 2c 89 be 10 a2 38 be 76 1a 6d be d0 86 83 be
       -0.2679206 -0.18030572 -0.23154625 -0.2568879
000050 dc 2b 62 3e f2 e5 7f be 4d f1 61 be 98 ed 84 be
       0.22087044 -0.24990061 -0.22064705 -0.2596252
000060 8d b6 9d be 90 74 80 be 7d 90 09 be ca d3 2e bd
       -0.30803338 -0.2508893 -0.13434024 -0.042682447
000070 f7 2a 98 bd e2 68 9d be e1 b9 69 be 91 aa 8a bb
       -0.0743007 -0.30744082 -0.22824813 -0.004231759
000080 e6 49 e3 bc 09 0c 9f 3a d7 97 00 be 3d bd 05 3e
       -0.027745198 0.0012134324 -0.12557922 0.1306047
000090 07 0e f4 be be a4 63 be d7 fd 8b 3e 0f 4d 15 be
       -0.47666952 -0.22230813 0.27342102 -0.14580177
0000a0 2b 76 84 be 2c 8c 56 be ad 9d c4 be e5 6e bf be
       -0.25871405 -0.20951909 -0.38401547 -0.37389293
0000b0 7b 61 b0 be 7d 5a 81 be e5 3b 74 be de 6f 77 be
       -0.34449372 -0.2526435 -0.23850973 -0.24163768
0000c0 c5 1f 82 3e 01 28 8f be 37 e0 9d be 48 da 48 be
       0.25414863 -0.27960208 -0.30835125 -0.19614518
0000d0 6e e7 2a 3d 0f e2 dd be b2 70 ee 3b 7b 25 bb be
       0.041724615 -0.43336532 0.007276618 -0.36552033
0000e0 2a 61 94 be 2e bb 86 be 41 8f 99 be b5 97 74 be
       -0.2898038 -0.26314682 -0.29992107 -0.23885997
0000f0 b4 bc 80 be 1d b8 d8 be a6 34 ca bc f1 50 b7 3e
       -0.2514397 -0.42327967 -0.024683308 0.3580394
000100 8c 2c 24 3e d8 52 6e be 59 2f 37 bd 93 1c 6a be
       0.16032618 -0.2327379 -0.04472289 -0.22862463
000110 c2 06 99 be 09 f9 92 be 84 a4 3f be 2c cf a2 bd
       -0.29887968 -0.28705624 -0.18715101 -0.07949671
000120 19 b1 ef bd 91 8d 3a be 52 f5 89 be 83 78 95 be
       -0.117037006 -0.18218066 -0.26944977 -0.29193506
000130 80 8d c6 be 45 2c ad be 02 36 a4 be c6 e1 2e be
       -0.3877983 -0.33822837 -0.32072455 -0.17078313
000140 58 86 07 3d e9 7f 14 be 5a d9 f6 be e2 4f 83 be
       0.033087105 -0.14501919 -0.482127 -0.25646883
000150 ee 62 eb bd 15 a1 86 be 1f 2b aa be 20 e6 8a 3e
       -0.11493479 -0.2629477 -0.33236024 0.27128696
000160 a2 fe 02 3e fd 03 5c 3d b2 6e 88 3d c2 33 66 be
       0.12792447 0.05371474 0.066617385 -0.22480682
000170 8e 67 95 be 28 81 a1 be 6b 7f b3 bb ee df 38 be
       -0.29180568 -0.3154385 -0.005477836 -0.18054172
000180 27 42 21 be 4c 16 35 be 45 92 41 3e f9 af de be
       -0.15747891 -0.17684287 0.18903454 -0.4349363
000190 ca 37 76 be 74 1a 8e be bb 06 72 be 3f 96 37 be
       -0.2404472 -0.27754557 -0.2363538 -0.17928408
0001a0 97 dc 7e be ae a6 e7 be 9b 73 29 be d7 52 12 3e
       -0.24888836 -0.45244354 -0.16548006 0.14289413
0001b0 3a 90 de be 85 2c 42 bd 1b 96 75 be 8b 39 d1 bd
       -0.4346941 -0.04740574 -0.23983042 -0.102160536
0001c0 33 bb 9c bd 06 1c bf be 49 86 78 be 23 81 03 bf
       -0.07652893 -0.37326068 -0.24269976 -0.5136892
0001d0 ba 4f 91 be c2 ca bb 3b 7d 50 84 be 26 f8 4d be
       -0.2838114 0.0057309577 -0.25842658 -0.20114192
0001e0 b5 a0 21 bd 44 a8 c9 be 45 8e 88 be d2 04 ef bd
       -0.039459903 -0.3938619 -0.26671043 -0.11670841
0001f0 b0 69 b8 3d 95 59 1b be 47 b4 47 be 85 62 28 3e
       0.09004533 -0.15170892 -0.19502364 0.16443832

bn2.weight f4 [128]
000000 52 84 28 3f a4 85 9e 3e 29 01 11 3f 4c 5e 03 3f
       0.65826905 0.30961335 0.56642395 0.5131576
000010 f3 9d 0e 3f 63 bd 86 3e 67 8f e0 3e 21 cd b1 3e
       0.5570976 0.26316366 0.43859407 0.34726813
000020 ce 6e fa 3e 9d 25 4d 3f 2e 32 58 3f 49 51 22 3e
       0.48912662 0.8013552 0.8445157 0.1585132
000030 30 b9 55 3f 55 7c cb 3e 61 9d b1 3e 54 fc 05 3f
       0.834857 0.39743295 0.34690383 0.5233815
000040 c2 ae 62 3f f5 a7 03 3f 50 be 55 3f d9 52 8f 3c
       0.8854791 0.5142816 0.8349352 0.01749556
000050 f1 0a f6 3e bc fc 8a 3f 6c 67 69 3e b1 8b 9e 3e
       0.48055223 1.0858378 0.22793359 0.3096595
000060 e5 81 2b 3f f6 23 1f 3f 69 79 e3 be c3 07 6a 3f
       0.6699508 0.6216425 -0.44428566 0.91418093
000070 e7 ff 08 3f 84 24 a3 3f 33 a7 c1 3d c5 32 9d 3e
       0.53515476 1.2745519 0.09455719 0.30702797
000080 df 27 29 3f 5c dc 80 3f f5 3e 0e 3f 7f 66 bb 3e
       0.66076463 1.0067248 0.55564815 0.36601636
000090 d2 b3 da 3e 42 23 1a 3f b1 7c 45 3d 4b 62 5a 3f
       0.42715317 0.6021005 0.048214618 0.85306233
0000a0 76 b1 43 3f f2 e2 c6 3e ca e2 64 3f 76 34 fc 3e
       0.7644266 0.3884502 0.8940855 0.49258775
0000b0 38 8b 85 3e 0c 58 5c 3f 26 70 a6 3e 03 e9 1b 3f
       0.26082778 0.8607185 0.32507437 0.6090242
0000c0 03 d1 51 3e 08 dc f2 3e 5c fb 7a 3f 18 c1 bd 3e
       0.20489888 0.47433496 0.98039794 0.3706138
0000d0 32 a4 37 3f d5 ee 38 3f 0f 29 c1 be fb 42 58 3f
       0.7173492 0.7223943 -0.37726638 0.84477204
0000e0 d5 0f 20 3f 32 cf 95 3e 76 3d bd 3e e9 a1 1d 3f
       0.6252416 0.2925964 0.36960953 0.6157518
0000f0 84 a4 97 3e c4 5d 38 3f bc b8 2e 3e a2 9e 92 3e
       0.29617703 0.72018075 0.17062658 0.28636652
000100 f4 f0 d4 3e b4 4b 58 3f 71 02 b8 be 5a fb 48 3f
       0.41590083 0.84490514 -0.35939363 0.7850853
000110 e2 33 99 bd 40 ef db 3e 07 ac 26 3f 2a ee 1e 3f
       -0.07480599 0.4295597 0.6510624 0.6208216
000120 71 87 41 3f 61 ad c0 be b5 0c a8 3e ab 25 61 3f
       0.7559729 -0.37632278 0.32822195 0.879481
000130 7e ff 89 3f 9c 9f 9c 3e 89 3e 19 3f 7f 85 fc 3e
       1.0781095 0.30590522 0.59861046 0.493206
000140 3c cd 3e 3f c2 4b e8 3e d6 84 b0 3e cd cd 1c 3e
       0.7453191 0.453703 0.34476346 0.15312882
000150 0f 60 12 3f 15 0a ac 3e 57 8b c1 3e ab 06 4b 3f
       0.57177824 0.33601442 0.3780162 0.7930705
000160 50 56 87 3e 1f 1d 0e 3f cf 54 fe 3e 45 06 f2 3e
       0.2643304 0.55513185 0.4967408 0.47270408
000170 a1 28 80 3f 9c 75 27 be ed e2 dc be 03 f3 1d 3f
       1.0012399 -0.16353458 -0.4314188 0.6169893
000180 ff ae 19 3f 1c 18 89 3f 06 b5 b9 3e 91 1c aa 3e
       0.6003265 1.0710483 0.36270922 0.3322492
000190 9f 55 09 3f 72 cf 95 3e 40 96 da 3e da 65 bb 3e
       0.5364627 0.2925983 0.42692757 0.36601144
0001a0 a9 9d 82 3f 59 51 d7 3e 19 e9 26 bf 55 22 12 3f
       1.0204364 0.4205425 -0.6519943 0.57083637
0001b0 43 5a c7 3e d4 88 43 3f 94 4a f1 3e 5b 14 13 3f
       0.38936052 0.7638066 0.4712721 0.57452935
0001c0 b1 5e 90 be 73 29 4c 3f 04 cb d8 3e 3d a1 d9 3e
       -0.28197244 0.79750746 0.4234239 0.42505828
0001d0 66 ed 48 3f aa 84 56 3e 7d 66 fb 3e 1f df 4f 3f
       0.7848724 0.20949045 0.4910163 0.8119983
0001e0 9e fe 84 be 2c a3 08 3f 08 d8 64 3f f8 f5 db 3e
       -0.25975507 0.5337398 0.8939214 0.42961097
0001f0 80 f1 4d 3f 17 2c 85 3e b5 e7 e2 3e 19 db 04 3f
       0.80446625 0.260102 0.44317403 0.51896816

bn2.bias f4 [128]
000000 86 1c be bc 0a d8 96 3d 4b 52 05 be 21 37 dc 3e
       -0.02320696 0.07365425 -0.13019674 0.4301081
000010 70 91 d1 be 8d 72 b2 3b 20 b0 a7 3d 13 2a 16 3c
       -0.40931273 0.0054457844 0.0818789 0.009165305
000020 d8 ac 4d 3c 27 29 30 3e 2d f9 7a bc 69 ea 6b 3c
       0.012553416 0.17203198 -0.015318197 0.014399149
000030 f9 4e 88 bd f7 d5 7f 3e f1 bf e7 3b 0c 21 a6 3e
       -0.06655688 0.24983965 0.0070724417 0.32447088
000040 a7 f6 ca 3e d2 05 9b bd b7 29 6c 3d 1e bc f1 3c
       0.39641306 -0.075694695 0.05765697 0.029508647
000050 16 91 94 3e 48 ed 9e 3e 0b 8a 25 bb 51 22 2b 3d
       0.29016942 0.31040406 -0.0025259282 0.041780774
000060 04 57 d3 3d 4b 34 22 3e 3b 85 b1 bc f7 04 0c 3f
       0.10319331 0.1584026 -0.021669975 0.54695076
000070 01 ba 3f 3e b7 e8 e1 3e 17 d8 99 3d 32 d8 53 be
       0.18723299 0.4412286 0.07511919 -0.2068794
000080 0f c0 87 bd 5f 91 98 3e ec 48 1d 3b f0 e6 a5 3e
       -0.06628429 0.2979841 0.0023999764 0.32402754
000090 70 ae 8e 3d 4a cd e3 3e 50 c5 6f 3c c5 57 df 3e
       0.06966865 0.4449256 0.014634445 0.4362165
0000a0 cb d6 40 bd e8 36 f9 3e d3 7f dd 3e 62 cb de 3e
       -0.047079843 0.48674703 0.43261585 0.43514544
0000b0 ef a3 44 3e 0d 26 8a 3e 3b e7 20 3c 1b 4a c8 3d
       0.1920316 0.26982155 0.009820755 0.097797595
0000c0 f7 90 3d 3e 0a 5d bb bb 6d 46 5a 3e 86 f7 b4 bb
       0.18512331 -0.005717878 0.21315928 -0.005522671
0000d0 52 dc b5 3e f0 d9 3d 3e 35 36 1d 3d 93 87 48 3f
       0.35519654 0.18540168 0.038381774 0.7833187
0000e0 2b 80 d1 3e cd a6 2c 3c 28 ed 9f bc 45 6e 9e 3e
       0.40918097 0.010537815 -0.019522265 0.30943504
0000f0 aa d8 24 3c 0b 90 7b 3e 62 31 55 3e 88 08 96 be
       0.010061422 0.24566667 0.2081962 -0.29303384
000100 33 dd 13 3e ad b3 2d 3f 0e 10 6e 3e 2a 45 2e 3c
       0.1443985 0.6785229 0.23248312 0.010636607
000110 90 4e 8d bd b1 ef 2d be bc 6d 35 3d f0 1e 7c 3e
       -0.0689975 -0.16985966 0.044294104 0.24621177
000120 89 f4 7a bc 78 36 ce 3b df 52 54 3d 09 a9 8d 3b
       -0.015317091 0.0062931143 0.051836845 0.004323129
000130 d7 22 83 3e 13 53 7d be a0 d3 a8 3e 24 fc f9 3d
       0.25612518 -0.24738722 0.32973957 0.12206295
000140 d0 b0 6e 3e c1 b8 05 3f ea 37 7b bd 19 e3 88 3d
       0.23309636 0.5223504 -0.06133262 0.066839404
000150 6f 20 0b 3e b7 89 2c bc b4 04 cc 3e 47 0f b3 3e
       0.13586591 -0.010530881 0.39847338 0.34972593
000160 77 80 02 3c 9b 8c 5f 3d 28 17 0b 3f 39 73 a2 3e
       0.007965199 0.05457745 0.5433221 0.31728533
000170 b5 aa 2a 3f 50 1a 25 bd ac 09 9a be f3 fc c3 bb
       0.6666673 -0.040308297 -0.30085504 -0.0059810816
000180 0f 0c fe 3e 3c fc 0f 3f cf 25 a6 3e 1d 42 f0 3b
       0.49618575 0.56244254 0.3245072 0.0073321
000190 ac 2c 5e 3d 20 34 47 3d 3d d2 7d be 89 46 da 3c
       0.05424182 0.048633695 -0.24787231 0.026644962
0001a0 99 a9 94 3c e6 a0 86 3d 5e d0 a9 be 44 03 09 3e
       0.018147277 0.06573658 -0.33166784 0.13380152
0001b0 59 ee 42 3d f8 77 ee 3e f4 99 59 bc 30 dd 6f 3e
       0.047590587 0.46575904 -0.013281334 0.2342422
0001c0 c3 70 46 3e 63 b2 8d 3e b6 4d b8 3d 17 36 de 3c
       0.19378953 0.2767516 0.08999197 0.027125401
0001d0 51 ba e9 bc 49 14 a7 b9 cf fd 40 3e 41 a1 cc 3e
       -0.028531225 -0.00031867836 0.1884682 0.39966777
0001e0 1a b5 cf bd 81 a1 87 3d 9c cf 1c 3d cf e2 1b 3e
       -0.10141964 0.06622601 0.03828393 0.1522324
0001f0 a5 cd 6e 3e 23 3f aa bc ee 8d a3 3c 65 7c cc 3e
       0.23320635 -0.020782059 0.019965138 0.39938655

bn2.running_mean f4 [128]
000000 04 00 00 00 db 42 df 3d f1 e3 98 3f f0 c3 5b 3e
       6e-45 0.109014235 1.1944562 0.21461463
000010 4b 61 25 3d 3b e7 9d 3e bd 01 d7 3d 04 00 00 00
       0.04037599 0.30840477 0.104983784 6e-45
000020 04 00 00 00 0a a5 a4 3d 04 00 00 00 04 00 00 00
       6e-45 0.08039291 6e-45 6e-45
000030 04 00 00 00 5b 77 f8 3d 2c cc 1c 3e 05 3f 79 3d
       6e-45 0.1213214 0.1531226 0.060851116
000040 27 bd fd 36 04 00 00 00 04 00 00 00 04 00 00 00
       7.562008e-06 6e-45 6e-45 6e-45
000050 26 ce 37 3f 48 22 d2 3d 04 00 00 00 04 00 00 00
       0.7179893 0.10260445 6e-45 6e-45
000060 84 73 10 3e a9 ab 0d 3d 3d 4b a8 3d 6b 8a b1 3e
       0.14106566 0.034587536 0.082174756 0.34675917
000070 f4 86 f1 3e 21 9c 9c 3e 04 00 00 00 55 fa 3c 3e
       0.47173274 0.30587867 6e-45 0.18454869
000080 db fb a8 3e 53 65 b5 3e 54 44 a0 3d 95 e1 29 3f
       0.3300465 0.35428867 0.078255326 0.66359836
000090 84 ad 92 3c 15 c8 fe 3b 12 5a d2 3e 50 32 40 3f
       0.017905004 0.0077753165 0.41084343 0.7507677
0000a0 04 00 00 00 5b e5 23 3d cb 30 ff 3d 48 17 11 3d
       6e-45 0.040013652 0.124604784 0.035422593
0000b0 66 1f ab 3d ab 92 9f 3d 04 00 00 00 cd 72 57 3c
       0.08355598 0.077916466 6e-45 0.013149929
0000c0 d3 ff bb 3e 04 00 00 00 d7 00 1d 3e 04 00 00 00
       0.36718616 6e-45 0.15332352 6e-45
0000d0 1c 4e e3 3d bf ee 78 3d 97 99 22 3e b5 49 f6 3e
       0.110988826 0.06077456 0.15878902 0.4810311
0000e0 2b a8 3f 3c 04 00 00 00 04 00 00 00 ce 28 92 3d
       0.011697809 6e-45 6e-45 0.07136689
0000f0 04 00 00 00 78 33 4b 3e 52 6a d6 3e de 21 00 3f
       6e-45 0.19843853 0.4187799 0.5005168
000100 33 08 b6 3e 0c 7b 43 3f 54 38 aa 3d 04 00 00 00
       0.3555313 0.7635963 0.08311525 6e-45
000110 04 00 00 00 44 e5 97 3c 04 00 00 00 68 d6 84 3e
       6e-45 0.01854194 6e-45 0.2594483
000120 04 00 00 00 dd 38 49 3e 04 00 00 00 04 00 00 00
       6e-45 0.19650598 6e-45 6e-45
000130 bc cf 44 3e 06 38 e1 30 29 3c 4e 3e 8f b3 06 3f
       0.1921987 1.6386827e-09 0.20140137 0.52617735
000140 e0 59 89 3f db 4e b2 3e 04 00 00 00 04 00 00 00
       1.0730553 0.34825787 6e-45 6e-45
000150 6d 9a e5 3d 04 00 00 00 aa 00 d9 3e d1 e3 85 3f
       0.11211095 6e-45 0.4238332 1.0460149
000160 61 fe d3 3d 56 e3 0c 3f 78 72 53 3e 83 04 1b 3e
       0.10351253 0.5503439 0.20649135 0.1513844
000170 5d cf 32 3e 04 00 00 00 7a 0d ed 3e 04 00 00 00
       0.17461915 6e-45 0.46299344 6e-45
000180 07 5a 7c 3e e1 ad c3 3f a8 48 5a 3f 04 00 00 00
       0.24643718 1.5287439 0.85267115 6e-45
000190 04 00 00 00 04 00 00 00 6d fb 8f 3c 04 00 00 00
       6e-45 6e-45 0.017575944 6e-45
0001a0 44 88 8a 3e 04 00 00 00 33 28 14 3e c1 6d 4b 3f
       0.27057087 6e-45 0.1446846 0.79464346
0001b0 cc 20 ae 3b a1 dc c2 3e 04 00 00 00 96 7d 0c 3d
       0.0053139683 0.38058951 6e-45 0.034299456
0001c0 14 15 2c 3d 04 00 00 00 f9 a6 78 3e 04 00 00 00
       0.04201229 6e-45 0.24282445 6e-45
0001d0 04 00 00 00 83 ac c4 3d d2 3f 84 3b 3c d8 46 3e
       6e-45 0.096032165 0.0040359283 0.19418424
0001e0 35 41 83 3e d0 d4 79 3c 04 00 00 00 cd 33 b2 3e
       0.25635687 0.015248492 6e-45 0.34805146
0001f0 22 1c 1d 3f 04 00 00 00 04 00 00 00 99 0e 24 3f
       0.6137105 6e-45 6e-45 0.64084774

bn2.running_var f4 [128]
000000 04 00 00 00 85 28 7b 3d e5 fb 5e 3e 7c 87 1a 3e
       6e-45 0.06131794 0.21775778 0.15090746
000010 9b 94 bd 3c 00 ba 61 3e f4 ca bc 3d 04 00 00 00
       0.02314215 0.2204361 0.09218398 6e-45
000020 04 00 00 00 f3 3c a9 3d 04 00 00 00 04 00 00 00
       6e-45 0.08263578 6e-45 6e-45
000030 04 00 00 00 62 4e 93 3d a8 c2 ce 3d e3 86 a2 3c
       6e-45 0.07192685 0.100957215 0.01983971
000040 99 43 27 35 04 00 00 00 04 00 00 00 04 00 00 00
       6.2310716e-07 6e-45 6e-45 6e-45
000050 81 16 40 3f 1f 73 f8 3d 04 00 00 00 04 00 00 00
       0.7503434 0.121313326 6e-45 6e-45
000060 bb a8 b4 3d a3 50 b4 3c 36 12 84 3d 0e 5a 60 3e
       0.08821245 0.022011107 0.06448786 0.21909353
000070 cc b3 e0 3d f1 14 6b 3e 04 00 00 00 fa 6d 06 3e
       0.109717935 0.22957207 6e-45 0.1312789
000080 49 ce 9a 3e e3 5b 9d 3e 42 59 93 3d 66 0a cb 3e
       0.30235508 0.30734167 0.07194759 0.3965637
000090 5c 1c a3 3b 44 ac 05 3b d4 d1 a3 3e cc c2 bf 3e
       0.004977746 0.0020396868 0.31996024 0.37453306
0000a0 04 00 00 00 ed 92 6b 3c 9b 55 e2 3d c1 f1 80 3c
       6e-45 0.014378292 0.11051484 0.015740277
0000b0 5b e8 9e 3d 3b 73 9c 3d 04 00 00 00 45 41 c1 3b
       0.07759162 0.07639166 6e-45 0.0058976733
0000c0 77 8c 68 3e 04 00 00 00 61 c7 12 3e 04 00 00 00
       0.22709833 6e-45 0.1433387 6e-45
0000d0 28 f9 96 3d 9e 37 3a 3d 91 ac d6 3d 0a a7 bc 3e
       0.073717415 0.045463197 0.10482133 0.3684619
0000e0 b9 9d b7 3b 04 00 00 00 04 00 00 00 8d bd 20 3d
       0.005603519 6e-45 6e-45 0.03924327
0000f0 04 00 00 00 7e 12 13 3e 9f e6 63 3e a8 e8 c6 3e
       6e-45 0.14362523 0.22255944 0.38849378
000100 d1 e2 59 3e ea c2 30 3f 9c 13 2c 3d 04 00 00 00
       0.2127793 0.69047415 0.04201089 6e-45
000110 04 00 00 00 d9 17 02 3c 04 00 00 00 9f 63 1b 3e
       6e-45 0.007940256 6e-45 0.15174721
000120 04 00 00 00 9c da d1 3d 04 00 00 00 04 00 00 00
       6e-45 0.102467746 6e-45 6e-45
000130 49 2f 14 3e c9 35 31 2f d7 47 51 3e 6d 1c 90 3e
       0.14471163 1.6117165e-10 0.20437561 0.28146687
000140 b9 97 48 3f 97 6b 8a 3e 04 00 00 00 04 00 00 00
       0.7835651 0.2703521 6e-45 6e-45
000150 21 eb a3 3d 04 00 00 00 1c 5b ab 3e c3 ac 20 3f
       0.08003832 6e-45 0.33467948 0.62763613
000160 69 55 23 3d 59 30 24 3f 2c d0 61 3e f3 43 07 3e
       0.039876375 0.6413627 0.22052068 0.13209514
000170 72 8a 01 3e 04 00 00 00 10 ee cf 3e 04 00 00 00
       0.12650469 6e-45 0.40611315 6e-45
000180 df 47 ee 3d 3c 72 26 40 51 f3 20 3f 04 00 00 00
       0.11634802 2.6007223 0.6287127 6e-45
000190 04 00 00 00 04 00 00 00 c5 75 ca 3b 04 00 00 00
       6e-45 6e-45 0.00617859 6e-45
0001a0 0c bc f6 3d 04 00 00 00 e1 e9 ca 3d 00 de 59 3f
       0.12047586 6e-45 0.0990789 0.8510437
0001b0 9e b9 bf 3a c6 8d 69 3e 04 00 00 00 e3 f7 aa 3c
       0.0014627462 0.22807989 6e-45 0.020870155
0001c0 49 2d 83 3c 04 00 00 00 5d 62 da 3d 04 00 00 00
       0.016012805 6e-45 0.106632926 6e-45
0001d0 04 00 00 00 83 d7 82 3d ee 3b 7c 3a 69 2c 65 3e
       6e-45 0.06388762 0.00096219673 0.22380222
0001e0 10 f5 06 3e a5 ea ae 3b 04 00 00 00 50 ea 72 3e
       0.13179421 0.0053380304 6e-45 0.23722196
0001f0 ee bb ce 3e 04 00 00 00 04 00 00 00 e9 f0 26 3f
       0.40377754 6e-45 6e-45 0.6521135

fc2.weight f4 [128, 128]
000000 49 5b 44 3d f5 65 94 bf 88 47 59 3e 5e 62 e9 bd
       0.04793862 -1.1593615 0.21218693 -0.11395715
000010 7f 10 2e 3e df d1 c3 3c 4f f0 fd be 5f b9 2a 3d
       0.1699848 0.023903785 -0.49597403 0.04168069
000020 af f7 21 3b 36 73 82 3e bc c5 af bd 9b 2f 16 be
       0.0024714281 0.25478524 -0.08582637 -0.14666598
000030 5e 11 94 3d f9 47 36 3d e3 81 47 bf 37 64 f3 bd
       0.07229875 0.044502232 -0.77932566 -0.11884349
000040 b7 7c 93 3d cf 9c 81 bd 53 41 d6 bd 31 7c da 3c
       0.07201522 -0.06328737 -0.10461678 0.026670547
000050 92 da 69 be 30 b7 13 3d 01 f6 25 bd 09 dc f5 bd
       -0.22837284 0.036063373 -0.04051781 -0.12004859
000060 82 3d a6 3d 0f 3f 47 be f1 af fe 3d 7e b6 02 be
       0.081172004 -0.19457649 0.12435902 -0.12764928
000070 fd 31 0d 3f 03 a2 8d 3d ab 39 20 3d 54 e3 6f 3e
       0.551544 0.06915667 0.039117496 0.23426563
000080 9d 0b aa bd a4 ac 0b bf 0c 6f e0 3d d7 3e 29 3e
       -0.08302996 -0.54560304 0.109586805 0.16527878
000090 8b c1 fa be 50 22 9f 3e 08 99 01 be c8 70 e9 ba
       -0.48975787 0.31080866 -0.12656033 -0.0017810101
0000a0 3f 28 3b bc 13 2f 2f be 60 b9 ac 3d 57 cd 3f be
       -0.01142317 -0.17107801 0.08433795 -0.18730675
0000b0 09 6c 9c bd 55 81 65 be e9 fa 7c 3d 95 64 36 bd
       -0.076377936 -0.22412618 0.061762724 -0.044529516
0000c0 69 c9 0e be c1 ba 21 be e5 e3 6d bf 43 0f 4e bd
       -0.1394402 -0.15793897 -0.92925864 -0.050307523
0000d0 66 30 8e 3d 61 de ba bd 4c 25 cb 3d 63 f0 4e be
       0.06942825 -0.09124447 0.09919223 -0.20208888
0000e0 c6 b4 c8 bd af f2 84 be e0 d8 04 3a e6 2b 8b be
       -0.09800105 -0.25966403 0.0005067717 -0.2718193
0000f0 f2 ca 9d 3c 0c 3d 6b 3e 18 1e 2d bd 8e be 32 bd
       0.01926181 0.22972506 -0.042265028 -0.04363876
000100 30 45 96 3e e7 1d 5c be db f4 dd bc cb 10 dd 3b
       0.2934966 -0.21495782 -0.027094295 0.0067463866
000110 f5 4d a9 bd ee 06 20 be 2d 27 86 bd 12 4e 53 bf
       -0.08266822 -0.15627643 -0.06550441 -0.82541
000120 63 42 91 3b 59 48 cc be 97 01 32 be 1e c4 7d 3c
       0.0044329627 -0.39898947 -0.17383419 0.0154886525
000130 83 66 e5 bc f9 78 da 3d f0 e7 71 bc 56 c5 31 3e
       -0.028002983 0.10667605 -0.014764771 0.17360434
000140 81 d9 00 3f 1e 3a 86 be b6 11 55 be 6f 93 84 3d
       0.50331885 -0.26216215 -0.20807537 0.06473433
000150 3a f4 76 3e d0 50 2c bd 5e d9 ff 3d 0c 29 dd 3d
       0.24116603 -0.042069256 0.124926314 0.10798845
000160 11 ef 88 3e 5d 7c 02 3f a7 4d ab be 34 af 49 3e
       0.26744893 0.50971013 -0.33457682 0.19695741
000170 0d 48 6a bd cb de 1d bd ee b9 af 3e 5d 66 bd 3b
       -0.05719762 -0.03854255 0.3432154 0.005780025
000180 66 23 3b be 2c ce 3e bd fa 38 58 3d ef 27 3c bd
       -0.18275222 -0.04658334 0.052788712 -0.04593652
000190 80 81 28 be ab 8b b8 3e 85 4c 8c be fa 6e 42 3d
       -0.1645565 0.36044058 -0.2740213 0.047469117
0001a0 bb e5 82 bf be ce 55 3e 4b fa 08 bd 30 26 3c 3e
       -1.0226358 0.20879647 -0.033441823 0.18373942
0001b0 57 f4 fe 3c ee 95 cb 3e 94 2f 50 3b ec be c1 be
       0.03112237 0.39762825 0.003176664 -0.37840974
0001c0 fc ba 8c be cb 0c 2c be 60 a2 b9 3e 92 ee b8 3d
       -0.27486408 -0.16801755 0.36256695 0.09029879
0001d0 4e c9 b7 bd 42 9f 9f 3e a4 fe 16 bd 55 47 44 3e
       -0.08973943 0.31176192 -0.036863938 0.19167836
0001e0 df 60 85 3e 6c 93 91 bd 56 a3 8d bd 91 d5 bc 3d
       0.2605047 -0.071081966 -0.069159195 0.09220422
0001f0 3d b6 8a 3e a1 db ef 3d 78 5d 40 3d 2f 9e 47 be
       0.27092162 0.11711813 0.04696414 -0.19493936
000200 f7 b2 03 3e 7d 78 d2 bd 03 8c d6 3d 3f e0 a5 3d
       0.12861238 -0.102768876 0.10475924 0.08099412
000210 6b 0a 11 be 00 5e ed 3d f0 0f 54 be 9f ae 2d 3e
       -0.1416413 0.11590195 -0.20709205 0.16961144
000220 6b e5 cb 3c 47 31 4b be 64 e6 8f bd 76 2b a3 3d
       0.024889668 -0.19843017 -0.070263654 0.07967274
000230 6f 92 b6 bd c6 8e 07 bf d9 7c 93 bd 72 06 f8 3a
       -0.08914649 -0.5295223 -0.07201547 0.0018922819
000240 e2 1d 4e 3e 7d 1c 3f be de 2b 44 3e d1 67 7b 3d
       0.20128587 -0.18663211 0.19157359 0.061378304
000250 bb 27 ca 3e d9 3a 3b be c9 5f 69 bd 59 90 8d 3e
       0.39483437 -0.18284167 -0.056976113 0.2764919
000260 57 3c 39 be b0 72 a8 bd 86 95 c5 3e 77 85 c7 37
       -0.18089424 -0.08225 0.3859064 2.3784798e-05
000270 0a 45 0b 3d 9a 2b eb bd cf e7 19 3e a2 3e a9 be
       0.034001388 -0.11482926 0.15029834 -0.33055598
000280 1b 7c 13 be c8 58 4a 3e 13 a5 06 3e 50 65 24 be
       -0.14402811 0.1976043 0.13148908 -0.16054273
000290 2d 74 e6 bc 88 ea a0 be bc 57 fd bc c7 e9 46 bb
       -0.028131569 -0.31428933 -0.030925624 -0.0030351744
0002a0 8a 26 18 be 5b 96 2d 3e 7b 04 ad be 7e 36 91 bc
       -0.14858451 0.16951887 -0.3379248 -0.01772618
0002b0 5e bc 5b 3e 2c 05 4e be af a0 20 3e 65 05 b1 be
       0.21458575 -0.2011916 0.15686296 -0.34574428
0002c0 d4 5c a8 3e 7b b4 70 3a ad 61 6e be e3 bf bd bd
       0.32883322 0.0009182167 -0.23279448 -0.09265115
0002d0 e7 01 a2 3e d9 84 2f bf 3e fe da 3e 09 25 d7 be
       0.31642076 -0.68562084 0.42772096 -0.42020443
0002e0 fa 91 33 be 96 60 0f be b3 a0 f3 bd 1b d1 b4 bd
       -0.17536154 -0.14001688 -0.11895885 -0.08828946
0002f0 8a 4f cf 3d 82 cf 69 be 93 1a 8b bd 87 1e 51 3e
       0.10122593 -0.22833064 -0.06792178 0.20421802
000300 a0 e8 16 be 29 a8 9e 3e 39 31 7c 3e 6f b5 eb 3c
       -0.14737177 0.3098767 0.24628152 0.028773038
000310 3a 1a 01 be 7e 8d 50 be 29 9d 4b 3e 9a db 53 3e
       -0.12607661 -0.20366475 0.1988417 0.2068924
000320 3f b8 5e 3c 22 1b a0 3e 1e af d6 3d 93 c9 6c bd
       0.013593732 0.312707 0.1048262 -0.057809424
000330 0e 02 c5 be cc b3 08 3e 3b d7 19 be 58 09 24 3d
       -0.3847813 0.13349837 -0.1502351 0.040047973
000340 ae 6d 82 be ca c3 d0 3d 4a 8c 3a be 0a a1 6a 3e
       -0.25474304 0.10193594 -0.18217579 0.22912994
000350 55 04 97 be 9c 56 72 3c f5 6d 67 bd e4 e2 3e bd
       -0.29495493 0.014791157 -0.056501348 -0.0466031
000360 ca c7 55 3e 6e 4d 60 3c e7 ce d2 bc ae 0f 97 be
       0.20876995 0.013690336 -0.025733424 -0.2950415
000370 a7 43 2c bf 0a ce 38 bd 03 20 d5 3c ea d0 1d bd
       -0.6729073 -0.04511837 0.026016241 -0.038529314
000380 46 57 ac 3d b4 4d 2e bf 46 39 36 3e 95 c8 3b be
       0.084150836 -0.68087316 0.17795286 -0.18338235
000390 ef 30 b1 ba e4 70 51 3e 36 37 fc bd 19 d6 bc 3c
       -0.0013518612 0.2045322 -0.12315218 0.023051308
0003a0 fd ba 35 3f 07 2b b8 3e 34 82 49 be f5 77 e3 bd
       0.70988446 0.35970327 -0.19678575 -0.11106864
0003b0 b8 d5 5c be 30 b0 23 3d 60 dc c5 3d dd f9 2a be
       -0.21565902 0.039962947 0.09661174 -0.16696878
0003c0 b4 66 62 bc da 10 9a bd 84 e5 95 3e 6c 07 a2 3e
       -0.013818432 -0.075227454 0.2927667 0.31646287
0003d0 57 dc 05 be f6 20 f9 3d 7e 62 88 3d d3 1e 1e bd
       -0.13072334 0.1216449 0.06659411 -0.038603615
0003e0 6a 78 05 bf da 96 9e be 83 ee 2e 3e c1 61 8e 3e
       -0.5213686 -0.30974466 0.17083173 0.27808955
0003f0 52 46 14 be a0 71 bd bd 4d fa 02 3e 56 2b aa be
       -0.1447995 -0.09250188 0.12790795 -0.33236188

fc2.bias f4 [128]
000000 62 27 9d bd 20 e0 7d 3c 59 99 bf bd 29 ee 77 be
       -0.07673527 0.01549533 -0.093554206 -0.24211945
000010 4e ac 10 be a9 5b 83 3d 83 14 3f 3f 43 15 1a be
       -0.14128229 0.06413967 0.74640673 -0.15047173
000020 3d 60 1e be 12 ab 8e be 58 fb 1c be bd 56 d5 3d
       -0.154664 -0.2786489 -0.15330255 0.10416935
000030 98 46 b6 be c3 55 3a be 70 8a ad be db dd c0 be
       -0.35600734 -0.18196778 -0.33894682 -0.37669262
000040 a3 34 32 be 30 2d 24 be bd db c9 3e 04 13 46 3e
       -0.17402892 -0.16032863 0.3942546 0.19343191
000050 fb 91 d5 be de f3 39 be 85 7b d1 ba f9 17 f4 bc
       -0.41712937 -0.18159434 -0.0015982246 -0.029796587
000060 9c f8 c7 bd 57 07 ca be d7 23 1f be 55 67 1d bd
       -0.09764215 -0.39458725 -0.15541016 -0.038428623
000070 d3 05 44 be 2d e9 39 bd 36 53 7d be 2e 13 73 bd
       -0.19142847 -0.04538839 -0.24738774 -0.059344463
000080 71 32 12 be 73 d1 a3 be ce 5e 9a be 8e aa 8b bd
       -0.14277054 -0.31995735 -0.30150455 -0.0681964
000090 5f 5c ef 3d 72 4b 7e be fd b4 e2 bd d4 06 9d bd
       0.1168754 -0.24833468 -0.11069677 -0.07667318
0000a0 60 b2 f1 be 4c bb 9a be d3 8f 69 bd 15 cd 08 be
       -0.47206402 -0.3022102 -0.057021927 -0.13359483
0000b0 97 00 82 be 7e f9 17 be 00 7b 50 be c3 4a 64 3c
       -0.25391075 -0.14841267 -0.20359421 0.01393384
0000c0 c8 c8 17 bd f2 48 08 be a1 e4 7e be cd bc 99 be
       -0.037056714 -0.13309076 -0.24891903 -0.30026856
0000d0 72 4d a8 be 26 4d 2f 3c ea ba 1a be 59 b3 91 3d
       -0.32871586 0.010699546 -0.15110365 0.07114286
0000e0 7f 5d 08 be 7a 14 e9 3d 28 ab 54 be 5a 9d cd be
       -0.13316916 0.11380859 -0.20768416 -0.40159112
0000f0 ea 6e de bd 00 0f 1c 3d a3 95 b9 be d7 71 43 be
       -0.10860999 0.038100243 -0.36246976 -0.19086395
000100 ff cc 97 be 9f 2f fe 3d 90 61 83 be b2 fa 64 be
       -0.29648587 0.12411427 -0.25660372 -0.22361258
000110 ac 8a 86 bd d0 c4 77 be dd f9 3e bd 20 28 b4 be
       -0.06569418 -0.24196172 -0.046625007 -0.35186863
000120 de d0 10 be 1c be 19 be ea b8 87 be 65 d3 03 3f
       -0.14142177 -0.15013927 -0.26508266 0.5149444
000130 19 f5 62 be ad 6e 94 be 10 be a6 bd 8f 57 1e be
       -0.2216381 -0.2899069 -0.0814172 -0.15463088
000140 81 8d 93 be f9 b1 1b 3f 9f e1 30 3d 75 f2 78 be
       -0.28818896 0.6081844 0.04318392 -0.2431124
000150 12 62 7f bd 4f 45 e6 be 64 65 38 be 56 4a 78 be
       -0.062349387 -0.44974753 -0.18007427 -0.24247107
000160 65 11 a4 be f4 39 2e be e4 93 e1 3e ab 9a 00 bf
       -0.3204452 -0.17014295 0.44058144 -0.50236005
000170 26 d7 99 be c9 60 c5 be b1 50 c6 bc ed 28 c3 bd
       -0.30046958 -0.38550404 -0.024208399 -0.0952929
000180 86 ff e9 be f4 bf 94 be 8a 48 c5 3a 4a 18 2e be
       -0.4570276 -0.290527 0.0015051526 -0.17001453
000190 21 cf 1a 3e 79 d9 54 be c6 1a 1f be 54 e7 60 bd
       0.15118076 -0.20786084 -0.15537557 -0.05490811
0001a0 31 77 02 be 93 19 8d be f5 63 2e 3e 1f ed c2 3c
       -0.1274078 -0.27558574 0.17030318 0.023794709
0001b0 d6 eb 08 be 46 81 f2 bd 4b ad ec bd 9a 2e 96 3e
       -0.13371214 -0.11841063 -0.115564905 0.2933243
0001c0 84 19 44 be 72 f6 0c be db bf 94 bd 23 31 96 be
       -0.19150358 -0.13765886 -0.07263156 -0.29334363
0001d0 29 06 1a be ef f0 33 3f fc 9d a8 be bd ad 9c be
       -0.15041412 0.7028951 -0.32933033 -0.30601302
0001e0 a7 fe e2 bd f3 4b e2 bd 62 11 bb bd 1e 66 2f 3c
       -0.11083727 -0.110496424 -0.09134175 0.010705499
0001f0 e4 c3 a7 3c 10 c6 24 be 6a ac f0 bb 51 38 1a be
       0.02047915 -0.1609118 -0.007344772 -0.15060546

bn3.weight f4 [128]
000000 b5 0e 99 3f 5c ba bc 3f 5b d0 5a 3f 88 17 d4 3f
       1.1957613 1.4744372 0.85474175 1.6569681
000010 19 f4 94 3f 02 19 13 40 12 85 85 3f 7a 9a 87 3f
       1.1636993 2.2984014 1.0431235 1.0594018
000020 31 49 92 3f 0c aa d1 3f 81 80 78 3f e8 75 c8 3f
       1.1428586 1.6380019 0.9707108 1.5660982
000030 02 5c 89 3f 35 6f a5 3f e7 8b d5 3f 4e 0f b5 3f
       1.0731204 1.2924563 1.668332 1.4145296
000040 5a aa c3 3f 41 d4 b7 3f a0 11 6d 3f d2 a5 df 3f
       1.5286362 1.436165 0.9260502 1.7472479
000050 14 c0 a8 3f 80 59 c7 3e 35 ca c9 3f 11 aa ac 3f
       1.3183618 0.3893547 1.5764834 1.34894
000060 3d d7 ad 3f bf e2 53 3f 39 fe 8d 3f d4 81 c4 3e
       1.358131 0.8276786 1.1093208 0.383803
000070 d5 d7 ac 3f 72 e5 ea 3f 58 7e 86 3f 1c 6f 5e 3f
       1.3503367 1.8351271 1.0507307 0.8688829
000080 72 38 07 3f 4d ff 71 3f 25 b8 3b 3f 01 01 b0 3f
       0.52820504 0.94530183 0.7332786 1.3750306
000090 e5 23 aa 3f 10 1b c7 3f 47 f8 ab 3f 82 3b ef 3f
       1.3292204 1.5555134 1.3435143 1.8690035
0000a0 af 7e d1 3f 76 2b c2 3f f4 dc 6b 3f f8 4d 81 3f
       1.6366786 1.5169513 0.9213402 1.0101919
0000b0 77 7d e0 3f 06 b6 9c 3f ec f6 fb 3f 95 0b c2 3f
       1.7538289 1.2243049 1.968473 1.5159785
0000c0 f7 b1 16 40 ef 28 cf 3f 2f c8 9f 3f 17 f4 ae 3f
       2.354612 1.6184367 1.2482966 1.366824
0000d0 bf 8f 84 3f e3 46 99 3f 59 63 b5 3f 55 20 e1 3f
       1.0356368 1.1974758 1.4170943 1.7587992
0000e0 b3 24 cc 3f 28 6d 8b 3f 22 07 f0 3f 86 4d b9 3f
       1.59487 1.0892687 1.8752177 1.4476783
0000f0 26 30 3d 3f 1b 39 c2 3f f3 db 8c 3f a2 b8 06 3f
       0.73901594 1.5173677 1.1004623 0.5262548
000100 c3 ee 17 40 8e 05 d2 3f 25 6d bc 3f c9 31 74 3f
       2.3739479 1.6407945 1.4720808 0.95388466
000110 1e ad bf 3f 1f d4 04 40 ff 25 b5 3f ae 8a 9e 3f
       1.4974706 2.0754468 1.415222 1.2386072
000120 9c c0 8a 3f 50 34 fe 3f 58 5b e0 3f fb 19 ae 3f
       1.084003 1.9859715 1.7527876 1.3601679
000130 f6 94 a7 3f 4e 0d 67 3f 17 14 39 3f 1c 61 62 3f
       1.3092334 0.90254676 0.7229628 0.8842943
000140 f8 37 bd 3f b7 0b 2a 3f a2 0b 03 40 45 5d 49 3e
       1.4782705 0.66424125 2.047585 0.19664486
000150 d5 40 ca 3e b8 82 8d 3f 5d fb e9 3d 59 b8 09 3f
       0.39502588 1.1055517 0.11424897 0.5379692
000160 4f 85 96 3f 24 e1 be 3f 2c c0 c3 3f da 78 87 3f
       1.1759433 1.4912457 1.5293021 1.0583756
000170 2e 53 92 3f 04 d8 e0 3f 65 94 c5 3f 0f 9a 19 40
       1.1431634 1.7565923 1.5435911 2.400028
000180 c5 94 9b 3f fc 7a 77 3f 1c 64 d4 3f 51 60 b3 3f
       1.2154776 0.96672034 1.6593051 1.4013768
000190 fe ef 8e 3f a6 9b 03 40 f2 65 37 3f 7f 62 08 40
       1.116699 2.056375 0.7163993 2.1310117
0001a0 96 11 84 3f d0 35 e9 3f be 59 8f 3f aa 35 bb 3f
       1.0317867 1.8219547 1.1199262 1.4625752
0001b0 a8 d6 f9 3f 52 0c cd 3f 3f c6 9d 3f 38 45 5c 3f
       1.9518633 1.6019385 1.2326125 0.8604312
0001c0 c3 a6 40 3f 50 91 ac 3f 03 a7 cf 3f 8f ec 9e 3f
       0.7525446 1.3481846 1.6222843 1.2415942
0001d0 19 00 ad 3e 30 e1 1f 3f c7 41 77 3f e3 19 75 3f
       0.33789137 0.62452984 0.96584743 0.95742625
0001e0 12 b5 e5 3f 7c 4e d1 3f bf 2b d7 3f 82 11 a7 3f
       1.7945883 1.6352077 1.6810225 1.3052218
0001f0 58 db 8b 3f 1b 54 18 3f 22 aa fa 3f 4c 04 2e 3f
       1.0926313 0.59503335 1.958317 0.67975307

bn3.bias f4 [128]
000000 23 79 02 3e f5 d0 a1 3c 68 20 36 3e 2f 03 ab bd
       0.12741522 0.019752959 0.177858 -0.083502166
000010 c6 85 f5 ba b7 fc 4a bd 1f 72 34 3e 87 f2 b1 3e
       -0.0018731884 -0.049557414 0.17621659 0.34755346
000020 32 bd 78 bd b2 d4 52 be 54 d8 21 3e bf 76 60 be
       -0.060727306 -0.2058895 0.15805179 -0.21920298
000030 7d 75 64 3e 8b f6 1b 3e 3c 9b 2a be e7 f8 30 bd
       0.22310443 0.15230767 -0.1666078 -0.04320612
000040 c8 df d0 3c cb 31 4c 3e f1 60 98 3d d9 bb f2 3d
       0.025497332 0.1994087 0.07440365 0.11852235
000050 3d 05 a7 bd b0 e3 67 39 3b 44 9a 3d 8d 39 41 bd
       -0.08155296 0.00022114697 0.07532545 -0.047174025
000060 da ca 53 3e 28 c1 4f be 73 96 64 3e 18 1d 8e 3a
       0.2068285 -0.20288527 0.22323017 0.0010842411
000070 9e f1 77 b9 50 9f 23 be 3e 03 60 be 62 64 ca 3d
       -0.00023645765 -0.15978742 -0.21876237 0.09882428
000080 56 52 16 38 96 6a 3f be b1 9f 8c bb ab 30 e0 3d
       3.583947e-05 -0.18693003 -0.0042914976 0.10946783
000090 06 71 92 3c d8 3f 9d bd 5b e4 10 bd 0f 4e 45 3e
       0.01787616 -0.07678193 -0.035374027 0.19268058
0000a0 4f b0 0b bd 12 01 85 be 8e 15 3f be 52 c4 44 be
       -0.034103688 -0.2597738 -0.18660566 -0.19215515
0000b0 48 f4 1c bb 90 5e f2 bd 0d 51 6f be b9 1f 3a bd
       -0.0023949314 -0.118344426 -0.23370762 -0.04544041
0000c0 c2 6a 34 be 3b 80 dc 3d ce 42 1c 3e 57 cf 64 3e
       -0.1761885 0.107666455 0.15259859 0.22344719
0000d0 8b 0d 42 bd 6a 4d aa bd c9 49 cd bd 68 54 56 3e
       -0.047376197 -0.08315547 -0.10023839 0.20930636
0000e0 94 74 44 3e 5e 68 aa bd bf 73 1c 3e 6b d8 3f be
       0.19185096 -0.08320688 0.15278529 -0.187349
0000f0 58 16 f0 3b 46 b2 b6 ba bd eb d8 bd 4b 00 a1 ba
       0.0073268823 -0.0013938628 -0.105918385 -0.0012283413
000100 41 f4 c2 bd a0 3f 97 bc 57 21 0d 3e 17 11 d6 b8
       -0.09519244 -0.018462956 0.1378225 -0.000102074984
000110 cc 61 ed 3d 3e 5b 34 3e aa d5 d0 bc 5e f0 55 3e
       0.11590919 0.17612931 -0.025492508 0.20892474
000120 a4 58 04 3e e3 f3 17 3d 84 aa 86 be 72 17 6f bc
       0.12924439 0.037097823 -0.26301968 -0.014592992
000130 68 a5 b9 3b f7 4a f0 39 0a cf 20 3a f3 e3 96 bd
       0.00566547 0.0004583222 0.0006134367 -0.073676966
000140 aa 34 df 3a 65 c5 1a be 07 5c 37 be d6 6a 0b ba
       0.0017029245 -0.15114363 -0.179062 -0.0005318349
000150 64 38 81 be ce 31 28 3e d4 8d b7 3d c7 46 43 3b
       -0.25238335 0.16425249 0.089625984 0.0029796825
000160 da 6b b6 bd 15 ad 1c 39 2e f9 80 3e 2b b2 47 3e
       -0.0890729 0.00014941797 0.2519011 0.1950156
000170 29 a6 f7 39 3d 3d 06 3d 3a 74 c3 bd f3 cc 22 be
       0.0004723531 0.032773245 -0.09543653 -0.15898494
000180 9d 6c 00 3e f1 db 89 bb f8 e5 a4 3e f7 4d 81 bd
       0.12541433 -0.0042071273 0.32206702 -0.06313699
000190 8d b6 8b 3d 13 5d aa bc f9 99 fa 3a 97 e3 9b 3d
       0.06821928 -0.020796334 0.0019119374 0.07611769
0001a0 e0 30 cb 3d 4c 60 26 be 59 dc cb bd b8 1b bd 3e
       0.099214315 -0.16247672 -0.09954137 0.3693521
0001b0 13 c1 c4 bd a9 7f d0 bd ee e9 fb 3d 41 36 d1 bd
       -0.096071385 -0.10180599 0.12300478 -0.10215426
0001c0 56 dd 10 38 e3 92 11 3e 7a dc ba 3a 23 6b 52 3e
       3.453841e-05 0.14216189 0.0014256381 0.20548682
0001d0 9a f8 d0 ba 95 5c 37 3e 35 0a 0d ba 56 f6 df bb
       -0.001594323 0.17906411 -0.0005380244 -0.0068347855
0001e0 ab cb 09 be 77 c7 77 3e 74 80 09 3e 6d 0a 13 be
       -0.134566 0.24197184 0.13427907 -0.14359446
0001f0 4e ad 16 3e 9a 7f 2e 3e 63 29 af bd 60 d8 15 be
       0.14714548 0.17040864 -0.08552816 -0.14633322

bn3.running_mean f4 [128]
000000 fb c5 93 3e 14 e1 c1 3e a5 a6 2d 26 04 00 00 00
       0.28861985 0.37867033 6.024728e-16 6e-45
000010 3c d0 8f 3d 30 24 38 3f 43 e0 35 40 24 5a 09 3e
       0.070221394 0.7193022 2.8418128 0.13413292
000020 c6 64 34 3e 48 1a d3 35 83 14 ad 3e 07 03 87 3e
       0.17616567 1.5728374e-06 0.33804712 0.26369497
000030 04 00 00 00 fc 7b fc 3b 04 00 00 00 5c 64 06 3d
       6e-45 0.00770521 6e-45 0.032810554
000040 04 00 00 00 ce ed d5 3d 5a ad d6 3f 5a 46 5b 3f
       6e-45 0.10445748 1.6771653 0.8565422
000050 04 00 00 00 04 00 00 00 76 88 9e 3d d4 11 3b 3c
       6e-45 6e-45 0.077408716 0.011417825
000060 e5 ec e5 3d 6c 4a 96 38 64 d9 dd 3b 04 00 00 00
       0.11226825 7.1664195e-05 0.0067702997 6e-45
000070 04 00 00 00 f4 88 03 3c 91 84 55 3c db fd e4 3e
       6e-45 0.008028258 0.013032095 0.44724926
000080 04 00 00 00 04 00 00 00 ed d0 10 31 04 64 1e 3e
       6e-45 6e-45 2.1073518e-09 0.1546784
000090 4c 27 47 3f 04 00 00 00 37 24 29 39 8c 8c 09 40
       0.7779434 6e-45 0.00016130587 2.1492033
0000a0 82 2e 73 3d 77 bc 5d 3e 89 7c 22 3d 14 ad 1e 3f
       0.059370525 0.21653925 0.039669547 0.61982846
0000b0 04 00 00 00 b2 ab 72 3c 3e 6d 3b 37 80 0a 9f 3d
       6e-45 0.014811443 1.11715035e-05 0.077656746
0000c0 c3 26 9f 3d 04 00 00 00 1a 11 83 3f af 8d 0c 3c
       0.07771065 6e-45 1.0239594 0.008578702
0000d0 00 d7 95 3d fa ff 09 3e 9c f1 31 3d b9 a1 a8 3e
       0.073163986 0.13476554 0.043443307 0.32935885
0000e0 fe b9 c7 3b c1 e3 cd 3e 96 23 da 13 d3 ec 5b 35
       0.00609517 0.40212825 5.5066027e-27 8.192848e-07
0000f0 04 00 00 00 89 d4 6c 27 60 38 2e 3a 04 00 00 00
       6e-45 3.2866795e-15 0.0006645974 6e-45
000100 ad 12 c0 3d 46 0a 52 3f 04 00 00 00 3f 19 f1 1e
       0.09378562 0.82046926 6e-45 2.5527309e-20
000110 9a 19 01 3d f6 0b 79 3e c7 ec a0 3e 04 00 00 00
       0.031518556 0.24320969 0.31430647 6e-45
000120 04 00 00 00 82 c0 69 3e 04 00 00 00 49 b6 7b 40
       6e-45 0.22827342 6e-45 3.9330008
000130 27 fd 2c 3f 97 27 c7 36 04 00 00 00 6d 9d 53 3d
       0.6757378 5.935271e-06 6e-45 0.051663805
000140 34 53 0d 3e ba d6 ae 3f 0b c2 d1 3e e8 ad ae 14
       0.1380127 1.3659279 0.40968356 1.7638104e-26
000150 a8 a5 b5 3d 21 3d 7a 3d 5c 68 30 40 37 f6 a4 22
       0.08869487 0.061093453 2.7563696 4.471298e-18
000160 04 00 00 00 04 00 00 00 99 1c 45 40 24 de 15 3d
       6e-45 6e-45 3.0798705 0.036588803
000170 04 00 00 00 98 b2 0f 38 fe 0b 08 3e b4 b2 c4 3d
       6e-45 3.4260185e-05 0.13285825 0.096043974
000180 69 bd 89 3d 88 1e 62 37 55 8f 80 3e 5b 43 06 3e
       0.0672558 1.3477758e-05 0.25109354 0.13111632
000190 8a 9e 6d 3f 72 3b 6b 3e cd ca 03 35 79 f0 6f 3d
       0.92820036 0.22971895 4.9096417e-07 0.058578942
0001a0 04 00 00 00 39 6b 97 3e 97 66 36 3e 9d f0 35 3e
       6e-45 0.29573992 0.17812572 0.17767568
0001b0 55 59 8f 3e a5 2d 79 3d 5b 86 65 3e ee 5e 96 3f
       0.27997842 0.060834546 0.22414534 1.174772
0001c0 04 00 00 00 0b 66 93 3e b8 77 e8 3d 04 54 46 3d
       6e-45 0.2878879 0.113509595 0.048419967
0001d0 04 00 00 00 de 14 4f 40 04 00 00 00 e8 92 c6 36
       6e-45 3.2356486 6e-45 5.917962e-06
0001e0 14 fa 9a 3d 4c 58 d2 3d df a1 f9 3d e7 a0 d2 3d
       0.0756723 0.102707475 0.121890776 0.10284596
0001f0 6e 7e 56 3b 88 20 79 3e 47 3b af 3d 1c 20 3e 39
       0.0032729167 0.24328816 0.08556228 0.00018131774

bn3.running_var f4 [128]
000000 01 c7 a7 3e d5 71 0c 3f 83 76 ad 25 04 00 00 00
       0.32769015 0.54861194 3.0091023e-16 6e-45
000010 fd e4 4c 3e d2 bf ea 3f 9f b8 e9 40 ef 37 e9 3e
       0.20009227 1.8339789 7.3037868 0.45550486
000020 e6 6b 8f 3e 62 3c b2 34 9c 02 fc 3e a3 b8 d8 3e
       0.28012007 3.3199018e-07 0.4922074 0.42328367
000030 04 00 00 00 d9 00 fc 3b 04 00 00 00 89 69 ab 3d
       6e-45 0.0076905307 6e-45 0.083697386
000040 04 00 00 00 f6 bf b1 3d eb b7 8e 40 1a d8 95 3f
       6e-45 0.08679192 4.459951 1.1706574
000050 04 00 00 00 04 00 00 00 12 6d 23 3e f5 84 16 3c
       6e-45 6e-45 0.15959576 0.009186973
000060 1c 4f 9c 3d f8 08 05 38 ee fa 75 3b 04 00 00 00
       0.076322764 3.1718024e-05 0.00375336 6e-45
000070 04 00 00 00 a7 e4 9c 3c b6 a0 49 3c 0f 4b 3c 3f
       6e-45 0.019151999 0.012306383 0.7355203
000080 04 00 00 00 04 00 00 00 c7 27 96 2e e3 59 da 3e
       6e-45 6e-45 6.828276e-11 0.42646703
000090 74 93 0a 40 04 00 00 00 07 4e ce 38 7a 2f a0 40
       2.1652498 6e-45 9.837379e-05 5.0057955
0000a0 25 18 03 3e 95 28 06 3f ed 3d 12 3d 44 90 ca 3f
       0.12802179 0.52405673 0.03570359 1.5825276
0000b0 04 00 00 00 56 82 9b 3c d8 93 88 36 82 4a e3 3d
       6e-45 0.018983047 4.070327e-06 0.110981956
0000c0 b5 af 98 3d 04 00 00 00 03 78 36 40 e3 6d a8 3b
       0.074553885 6e-45 2.851075 0.0051400526
0000d0 39 a1 35 3e d7 9b 54 3e 27 7c 58 3d c9 5a 05 3f
       0.17737283 0.20762573 0.052852776 0.5209165
0000e0 a3 92 33 3b 93 b5 6f 3f af 9a 90 11 ff 23 22 33
       0.0027400635 0.93636435 2.2814525e-28 3.7751303e-08
0000f0 04 00 00 00 17 0b 3a 27 eb d6 dd 39 04 00 00 00
       6e-45 2.5818697e-15 0.0004231253 6e-45
000100 0e 74 80 3e 8f b3 f3 3f 04 00 00 00 49 66 5e 1d
       0.25088543 1.9039172 6e-45 2.9434336e-21
000110 20 e1 1f 3d 85 13 89 3f 79 99 01 3f 04 00 00 00
       0.039033055 1.0709082 0.50624806 6e-45
000120 04 00 00 00 c0 e5 8b 3e 04 00 00 00 f0 a7 0f 41
       6e-45 0.27323723 6e-45 8.9785
000130 fb 22 c2 3f c6 e6 0a 36 04 00 00 00 fc fe b1 3d
       1.5166925 2.069793e-06 6e-45 0.086912125
000140 a7 ed 8d 3e 88 6a 1a 40 aa 29 36 3f de 4a ec 10
       0.27720377 2.4127522 0.71157324 9.320094e-29
000150 1d 50 e6 3d be 2c c8 3d 55 0a d4 40 5f b0 88 20
       0.11245749 0.09774159 6.626261 2.315601e-19
000160 04 00 00 00 04 00 00 00 be 90 a0 40 42 ce 1c 3d
       6e-45 6e-45 5.0176687 0.03828264
000170 04 00 00 00 ed f9 00 37 1d cb d7 3e f7 02 6d 3e
       6e-45 7.687585e-06 0.4214715 0.23145662
000180 79 ca 03 3e 36 37 02 36 50 d6 e1 3e 9e 05 36 3e
       0.12870206 1.9403647e-06 0.4410882 0.1777558
000190 be 0f 16 40 bb d8 c9 3e 26 90 8a 33 10 f3 d5 3d
       2.3447108 0.39423165 6.452346e-08 0.10446751
0001a0 04 00 00 00 49 78 e5 3e 66 1e 83 3e 7b ed 33 3e
       6e-45 0.44818333 0.2560913 0.1757106
0001b0 6f d5 d2 3e 67 8f 76 3d e2 24 a5 3e 16 0c 5d 3f
       0.41178462 0.060195353 0.32254702 0.86346567
0001c0 04 00 00 00 2c 8d fd 3e 5f 9a 75 3e 3d 5b c8 3d
       6e-45 0.49521768 0.23984669 0.09783027
0001d0 04 00 00 00 ff 27 a6 40 04 00 00 00 4e c2 a1 34
       6e-45 5.1923823 6e-45 3.0129962e-07
0001e0 f8 42 1c 3e 43 07 0b 3e 6e a4 61 3e 1f 66 14 3e
       0.15259922 0.13576989 0.22035381 0.14492081
0001f0 2b 2e 2f 3b 6e fc d8 3e d7 46 24 3e 52 2e 2a 39
       0.00267304 0.4238009 0.16042648 0.00016229719
